Dependencies/series_hor_f2.onnx (onnx, 752454 bytes, 12 tensors)

sequential_10/dense_42/MatMul/ReadVariableOp:0 f4 [24960, 7]
000000 23 03 5d bb 05 2e 03 3c 24 7c fa 3b bb da 8f 3c
       -0.0033723793 0.008006577 0.0076441932 0.017560354
000010 a6 4b 66 3c 4b 59 b6 bc a7 17 b7 bc a8 22 e6 bb
       0.014056122 -0.022259375 -0.022350146 -0.0070231743
000020 ee 4d 10 3b c7 28 80 bc 32 90 9a 3c 5b f1 ec 3c
       0.0022019106 -0.015644444 0.018867586 0.028923681
000030 36 96 32 bc 69 d4 7b bb 66 85 92 3b 82 1d 11 3c
       -0.010900071 -0.0038426167 0.0044714687 0.008857133
000040 de 54 27 3c 66 9b a2 bb fb ac 95 3c ea c9 7a bc
       0.010213105 -0.0049623726 0.01827096 -0.015306929
000050 50 7f 3e bb 9d fe 9d bb 38 f8 55 3c 79 a2 3f bb
       -0.0029067583 -0.004821612 0.013059668 -0.0029241128
000060 2d b8 89 3c f4 7b 37 3c 10 30 fe bb 47 f7 17 bc
       0.016811455 0.011198986 -0.0077571943 -0.009275264
000070 c0 6f 7e bc 67 c6 25 3b 78 70 e5 3b 30 99 9f 3c
       -0.015529573 0.002529526 0.0070019327 0.019482225
000080 36 68 d7 3a 21 ee da bc 5b 66 d7 bb b5 36 bd bc
       0.0016434256 -0.026724877 -0.006573481 -0.023097375
000090 86 92 0a 3c ef ee 10 bc 78 34 3a 3c 1c 5f 92 3c
       0.0084577855 -0.008846029 0.011365049 0.017867617
0000a0 d5 23 ef bc 34 87 f0 3b fe d2 f7 bb c8 ff c7 3b
       -0.02919189 0.007340336 -0.007562994 0.0061034895
0000b0 a3 75 34 bb a4 f0 30 bb 36 02 6c 3c 32 77 00 bd
       -0.0027535937 -0.0026998902 0.014404824 -0.031363674
0000c0 77 61 1c 3c c5 57 e6 bc 5d b9 cd 39 a8 4d 87 3c
       0.009544722 -0.028118024 0.00039238753 0.016516522
0000d0 94 51 cb bb 73 4a 0a 3c e5 68 cc bc 57 d7 ed bb
       -0.006204793 0.008440602 -0.024952361 -0.0072583365
0000e0 32 82 35 bc 60 8c bb bb d3 38 05 3c 88 ba 98 3c
       -0.011078404 -0.005723521 0.008131224 0.018643633
0000f0 84 e5 03 bc c5 71 2a bc 3f 33 ed 3b 0e b6 6f bb
       -0.008050326 -0.010403101 0.007238775 -0.003657702
000100 a0 df 78 3c 28 ab 04 3c 41 c3 6d 3c 4c 36 bb 3b
       0.015190035 0.008097447 0.014511884 0.00571326
000110 66 bd 02 bb e4 08 18 3c db a2 e0 bc 4d e3 bb 3a
       -0.0019949316 0.009279463 -0.027421406 0.0014334709
000120 2b cf a7 3c 50 97 a4 3c 29 05 4c 3c 31 a7 ae bc
       0.020484528 0.020091683 0.012452402 -0.021319957
000130 0a b4 e7 3b 40 31 4d bc d1 bf a0 bb fe 74 b9 3c
       0.007071023 -0.012523949 -0.004905679 0.022638794
000140 4f 9c 26 3c 96 02 04 3a c4 15 f5 bc 68 ee 4d 3c
       0.010169103 0.0005035786 -0.029917605 0.0125690475
000150 91 39 df 3b 16 24 50 bc f8 57 df 3a 91 c6 bd 3c
       0.0068122824 -0.012703916 0.0017039767 0.023165973
000160 ca c6 a1 bb 35 e5 94 bb 33 d4 10 bd 65 84 10 3b
       -0.0049370276 -0.004543925 -0.03535862 0.002205157
000170 f0 a9 4a bb db 21 3d bc 41 a3 e9 3b 24 4d 22 3c
       -0.0030924045 -0.011543716 0.007130057 0.009906087
000180 25 3d 84 3b f4 20 a0 3b 08 14 7a bc 2c 28 c5 3b
       0.0040356093 0.004886741 -0.015263565 0.0060167518
000190 9a 20 52 3c 26 ce ea bb e0 31 df 3a 16 f1 61 bc
       0.012825156 -0.007165688 0.0017028414 -0.0137903895
0001a0 58 c8 97 3b 08 f2 f9 bc 6f 85 36 3b c1 82 b8 bb
       0.004632037 -0.030510917 0.0027850529 -0.0056308215
0001b0 90 1b 83 3c f8 aa 66 3c 8a 34 61 bc dd b6 24 3c
       0.016004354 0.014078848 -0.013745436 0.010053364
0001c0 81 fd 14 bc 56 48 9f 3c 52 02 8e 3a 09 39 eb 3b
       -0.009093643 0.019443672 0.0010834432 0.00717843
0001d0 51 26 d3 39 f4 8c d2 bc 8d 75 6e 3b 3a 1d 85 bc
       0.00040273604 -0.025701977 0.0036385984 -0.016249288
0001e0 71 c6 82 3b e1 70 c7 ba 1f 85 92 bb 4c ef ba bb
       0.003990941 -0.0015216136 -0.0044714357 -0.005704796
0001f0 fa 7b ea bc 41 77 4f 3c b2 b0 9b bc 7a ac 68 bc
       -0.02862357 0.01266271 -0.019005153 -0.014201278
000200 48 0a 61 bb ce 1e e5 3c 15 45 8a 3c 89 ab 2e bc
       -0.0034338403 0.02796879 0.016878644 -0.010661014
000210 ea 3e 4d bc 72 8b c1 bc b3 a6 f9 3b 8e 7c 3c 39
       -0.012527207 -0.023626063 0.007618749 0.00017975477
000220 d1 30 9c 3c f4 dc 85 3b ab 04 f2 bc 7e d6 70 bc
       0.019066246 0.0040851776 -0.029543241 -0.014699576
000230 d2 51 d7 bc 1f 86 93 3b 74 2c 14 3c b3 16 4d 3c
       -0.026284132 0.0045020725 0.009043802 0.012517619
000240 83 bd 87 3c 2d 29 97 bc a8 bb 6c 3b 80 c7 a0 bc
       0.016569858 -0.018452251 0.0036122594 -0.019626379
000250 e9 95 45 bb a5 0f 8c 3c f9 e1 32 3a e5 5e c7 bb
       -0.0030149168 0.017097304 0.00068238337 -0.0060843104
000260 a9 d3 d7 bc 9c c8 02 bb 77 0d fb bb 8b e4 01 3c
       -0.026346045 -0.0019955998 -0.0076615172 0.007928024
000270 ca 69 87 bc 6c 71 b6 3c 9b 3c bf 3c e3 48 99 bc
       -0.016529936 0.02227088 0.023344329 -0.018711513
000280 b4 3f fb bc b4 d6 b8 bc 02 8c 87 3b 86 9f e1 bb
       -0.030670024 -0.022563316 0.0041365633 -0.0068854718
000290 08 0a 8a 3c 0b 9b 0f 3c c6 18 d9 bc f7 76 7a bc
       0.016850486 0.0087649925 -0.02650107 -0.0152871525
0002a0 aa e8 8e bc 5c d7 37 3c 8f 1b 9e 3c be 99 1e 3c
       -0.017444927 0.011220779 0.01930025 0.00968021
0002b0 5a a8 db 3b f2 93 7d bc 50 ee 9d bb ba 82 e0 bc
       0.0067034187 -0.015477167 -0.004819669 -0.027406085
0002c0 57 64 c6 bb 76 67 1c bc d8 eb 06 3d d5 1a ad bb
       -0.006054442 -0.009546151 0.032939762 -0.0052827396
0002d0 b6 21 ab bc 1c 8a bf bc 2f b3 a0 bc 84 4c bf bc
       -0.020890098 -0.023381285 -0.019616691 -0.023351915
0002e0 88 e4 bf bb c2 40 65 3b f6 a9 f3 bb 1d c3 ae bb
       -0.0058561005 0.0034981226 -0.0074360324 -0.005333318
0002f0 36 df 4d 3c 5d 2c 28 bc a4 20 71 3b 43 2a a7 bc
       0.012565425 -0.010264483 0.0036793137 -0.020405894
000300 45 c4 77 3c 85 6c e6 3c 95 fc 4a 3c ef e2 20 3c
       0.015122478 0.028127918 0.012389322 0.00981973
000310 d0 4e 0d bc a7 35 8a 3b 3c 19 1c bb 5c 8c bd 3a
       -0.008624747 0.0042178216 -0.0023818752 0.0014461386
000320 4e 86 18 bc c5 35 9f bc be 42 49 3c f5 0b 34 bc
       -0.0093093645 -0.019434819 0.012283979 -0.010989179
000330 9b cf 32 bc 64 dc 69 3c fa 6a af 3c 42 57 8e 3c
       -0.010913755 0.014273737 0.021413315 0.017375592
000340 47 0b 49 bc e7 81 d7 bc 6e 44 d9 ba 99 7c ce 3c
       -0.012270755 -0.02630706 -0.001657618 0.025205897
000350 35 74 0c bc c5 1d d0 3c 70 e2 b4 3c 9e 35 1c bc
       -0.008572628 0.02540482 0.02208063 -0.009534268
000360 56 70 cd bc ca d9 d1 bb 78 c1 a5 ba 01 66 f9 bb
       -0.02507798 -0.0064041363 -0.0012646159 -0.0076110368
000370 14 b2 bc bc 7d ca 37 bc a2 a1 02 3c 29 03 0c 3c
       -0.023034133 -0.011217711 0.007973107 0.008545675
000380 ce 1e 94 bb 72 b7 b4 bc df df 25 3a 65 6d 07 3d
       -0.004520274 -0.02206013 0.000632761 0.03306331
000390 63 a5 1b 3c 4b d9 04 bc 32 2c d0 ba d3 e0 90 bb
       0.0094998805 -0.008108447 -0.0015882312 -0.0044213324
0003a0 ed 3d 2c 3c e5 ea 0b bc 0d a4 28 bb 19 c5 9c 3c
       0.010512811 -0.00853989 -0.0025732548 0.019136952
0003b0 48 e1 e9 bb b3 f3 ef 3a 41 30 4a bc 9d b2 4a bc
       -0.0071374513 0.0018306881 -0.012340606 -0.012371686
0003c0 03 46 f2 3b 43 74 35 bc b6 35 e7 ba 59 60 a5 bb
       0.0073936 -0.011075082 -0.0017639908 -0.005046886
0003d0 e9 2e a9 3c 5c b8 da bc 77 75 1e bc 93 44 2c bb
       0.020652251 -0.026699238 -0.0096715605 -0.002628599
0003e0 c3 f5 ad bb de 1b af 3b 0f 06 03 bd b6 cf 86 bc
       -0.005308838 0.005343898 -0.0319882 -0.016456466
0003f0 f6 19 50 bc e8 a7 29 3c bb 1e 22 bb 5c fb 1e bc
       -0.012701502 0.010354973 -0.0024737555 -0.009703483

sequential_10/dense_42/BiasAdd/ReadVariableOp:0 f4 [7]
000000 06 ab 71 bc 02 dc 3c 3c 11 f8 1f 3c 84 06 45 3c
       -0.014750248 0.011527063 0.0097637335 0.012025479
000010 45 c5 00 3c da c0 70 bc 40 d5 da 3a
       0.007859533 -0.014694417 0.0016695634

sequential_10/dense_41/Tensordot/ReadVariableOp:0 f4 [64, 32]
000000 5b 1f 71 3e 6b 93 fa ba 7e a1 ae bd 11 04 86 bd
       0.23547117 -0.001911742 -0.08526896 -0.06543744
000010 f2 eb 98 3e 85 dc 32 be d1 18 b6 bd 26 50 24 3e
       0.29867512 -0.17466934 -0.08891452 0.16046199
000020 8c 50 e1 3d 78 62 c9 3d 98 42 96 3e 41 51 3e be
       0.11001691 0.098332345 0.29347682 -0.18585683
000030 58 3c 6b 3d a5 c0 12 be b9 3b 0f 3d d0 e1 36 3e
       0.057430595 -0.143313 0.034969065 0.17859578
000040 19 1c 87 be 9a ef 54 3e d8 8c 2a bd c3 fc e1 3d
       -0.26388624 0.20794526 -0.041638225 0.110345386
000050 21 2e 07 3e af ce d8 3d f5 b8 24 3d 88 c3 20 bd
       0.1320119 0.10586297 0.04021545 -0.039248973
000060 cd bd 91 3e 9c c5 25 3d 36 08 26 bd 4e 91 8b 3c
       0.2846512 0.040471658 -0.040535174 0.01703706
000070 fb f6 4f be b8 70 fb 3d 34 46 5a 3e 33 32 1b be
       -0.2030906 0.12277359 0.21315843 -0.15155868
000080 55 4b 09 bd 65 33 2c be 17 d9 53 3d 92 e7 60 3e
       -0.033519108 -0.1681648 0.051720705 0.21963337
000090 de 61 a3 be dd 7a 0b 3d ed 4a 9e 3d 1c 39 fc 3d
       -0.31910604 0.03405272 0.07729135 0.1231558
0000a0 5a 59 8a be f8 ea d1 bd 66 dd 9a 3d d9 bd 5a 3e
       -0.27021295 -0.10249895 0.0756176 0.21361484
0000b0 6d eb 52 be 20 c7 0d be 76 18 24 bc e2 3d 17 be
       -0.2059762 -0.13845491 -0.010015598 -0.147697
0000c0 32 da b5 3e 6c 78 5c 3e 5b 72 13 3e 9a b9 79 bd
       0.35518032 0.21530312 0.14399092 -0.06096802
0000d0 8f c3 8b be fa 4e 74 be 57 40 0a be 17 27 0d bd
       -0.27297637 -0.23858252 -0.13501106 -0.034461107
0000e0 f5 44 a5 be 83 45 f3 bd 9f 9c 47 be 51 2c e9 bc
       -0.32279173 -0.11878493 -0.1949334 -0.028463515
0000f0 d2 83 4f be c5 59 05 3e 68 80 8f be b7 1e 08 be
       -0.20265129 0.13022526 -0.28027654 -0.13292967
000100 d3 82 74 3e 24 75 a0 bc 94 04 3b be 23 9d ed bd
       0.2387803 -0.019587107 -0.18263465 -0.11602237
000110 8f 3a 21 be c8 26 f5 3d 80 f2 68 be 1b 67 80 bd
       -0.15744995 0.119702876 -0.22748756 -0.06269666
000120 e7 35 dd 3d 65 a5 c2 bd 7b dc 50 3d d3 29 bc 3d
       0.10801297 -0.09504203 0.050991517 0.09187665
000130 e2 f1 41 3e e3 8c e8 bd 44 70 5a 3e a2 50 66 3e
       0.18939927 -0.11354997 0.21331888 0.22491696
000140 06 60 08 be 97 1c e4 3d 12 50 cb 3a e1 d9 a4 bd
       -0.1331788 0.111382656 0.0015511534 -0.080493696
000150 58 17 86 3e db 09 2a 3e 4e 2a 1b 3e 5d c4 9c 3d
       0.26189685 0.16605322 0.15152857 0.07654641
000160 08 78 01 3e 9c 08 ef bd 66 83 62 3d 8d 03 5e bb
       0.12643445 -0.11671564 0.055301093 -0.0033876628
000170 ab dc 26 be 00 ba fd 3d 0b 2c c4 bc ba 54 da bd
       -0.16295116 0.12388992 -0.023946783 -0.106606916
000180 ec 0a 8a 3e 4f 91 3d 3e 8a ca 83 3d 5e 5f 2e 3e
       0.26961458 0.18512462 0.06435116 0.17028567
000190 c7 2d be 3d 2d 7b 5f be 34 cf ba 3d cf 2f 4e be
       0.09286075 -0.21824332 0.09121552 -0.20135425
0001a0 02 a5 43 be 0b 78 73 3e 76 dd 06 be b3 d7 66 be
       -0.19105914 0.23776262 -0.13170418 -0.2254322
0001b0 2f be 6c 3e 22 ab 31 3e d4 68 1e be 1f de 2f 3e
       0.23119424 0.17350438 -0.15469676 0.17174576
0001c0 b9 12 0a be 74 23 73 be e3 c4 72 bd 3d 67 3d 3d
       -0.13483705 -0.23743993 -0.059269797 0.046241034
0001d0 21 a1 b6 bd 3a fe 86 bd d6 13 81 3e 04 ce 78 3e
       -0.08917452 -0.065914586 0.25210446 0.24297339
0001e0 c3 a2 8a 3e 1d fe 8e bd a7 5c 27 be d7 d7 61 3e
       0.27077302 -0.06982062 -0.16343938 0.22054993
0001f0 8f 52 29 be 46 74 3c be 4d 35 f9 bd e8 ac 6a 3e
       -0.165354 -0.1840373 -0.121683694 0.22917521
000200 a5 07 1b be 60 56 78 be 74 f0 62 be b1 d3 a1 3d
       -0.15139635 -0.242517 -0.22162038 0.07901705
000210 39 12 1b bd b2 fb 44 3e b8 d5 7b 3d c2 e6 37 bd
       -0.037859175 0.19236639 0.061483115 -0.044897802
000220 5a b8 a8 3d b2 b8 14 3d 90 84 87 be 2e c0 15 3e
       0.08238287 0.03630895 -0.26468325 0.14624092
000230 1f e3 4a 3d 80 fc 38 bd 98 73 cf bd a9 39 84 be
       0.049533006 -0.045162678 -0.1012947 -0.2582524
000240 5d 5d c5 3e a2 8a 58 be 91 86 9a be ec 0c d9 3c
       0.38547793 -0.21146634 -0.3018079 0.02649542
000250 14 64 26 3d 64 b5 a3 bc 6e cf 87 be e3 82 4f 3b
       0.040622786 -0.019983955 -0.26525444 0.0031663708
000260 bc 39 97 be b7 93 23 be 9a cd 2c bd 0c 9f 0d 3e
       -0.29536235 -0.15974317 -0.042188264 0.13830203
000270 68 12 82 bd 18 f6 e4 bd dc 98 b4 bc ac 8e f2 bd
       -0.06351167 -0.11179751 -0.022045545 -0.11843619
000280 86 5c 4a 3e 7c 0d 41 be c0 92 49 bd 2c 96 35 be
       0.19761857 -0.188528 -0.049212217 -0.17733067
000290 8d 20 53 3d f6 f0 22 3e 1e 88 09 3e c0 31 84 bd
       0.051544715 0.15912232 0.13430831 -0.064548016
0002a0 78 a1 53 3e 7c 09 1f 3d f5 6d fb bd b2 8f 9c bd
       0.20667064 0.038827404 -0.12276832 -0.07644595
0002b0 b6 fa 5c 3c f0 31 6d 3b 68 c5 1f be 4e 82 43 3e
       0.0134875085 0.0036193095 -0.15602648 0.19092676
0002c0 2b 8c c7 bd cb cb c6 3c a6 1e b6 bd d0 0a 10 3e
       -0.09743532 0.024267098 -0.088925645 0.14066625
0002d0 e6 b9 77 bd 34 e6 30 3d 7d bd 98 be b0 b5 4c 3e
       -0.06048002 0.04318829 -0.29832068 0.19991183
0002e0 2d 96 8e be 3f 34 7f bd bb d6 ab 3d e5 53 a3 3c
       -0.2784895 -0.062305685 0.08390566 0.019937465
0002f0 be 80 65 3e 18 cd 96 be 16 5c 01 3d fe 79 27 be
       0.22412392 -0.2945335 0.03158196 -0.1635513
000300 da 27 da bd c1 d6 8d 3d f3 14 46 3e 03 f5 5d be
       -0.10652132 0.06925727 0.19343929 -0.21675496
000310 95 11 a5 3e fc 63 5f be 4c 99 fa bd 10 df bb bd
       0.32239977 -0.21815485 -0.1223627 -0.09173405
000320 f4 4b 19 3d e8 11 87 bd b3 42 6a 3e 6c 46 3a 3d
       0.03742595 -0.06595212 0.22877006 0.045477316
000330 3e 9d 58 3e a1 9d b8 bd 64 d5 2b be 3a 30 41 3e
       0.21153733 -0.0901444 -0.16780621 0.18866053
000340 f6 29 07 3c a4 0c 0f 3e f7 c4 00 be 2a 14 81 3e
       0.00824975 0.13969666 -0.12575136 0.25210696
000350 0e ab 2d be 0a 33 4e 3e 6e a0 f3 3d 60 44 12 3d
       -0.16959783 0.20136657 0.11895834 0.03570974
000360 fc 8d da 3d 1c 89 d7 bc 64 23 82 be ba 4f af bd
       0.106716126 -0.026310496 -0.25417626 -0.085601285
000370 b8 59 a7 bc a9 18 46 be d5 ff dd bb 04 2c 23 be
       -0.020428523 -0.19345345 -0.0067748823 -0.1593476
000380 86 3f ce 3d 8e a4 c0 3d 90 b2 28 bd 50 a0 b6 bd
       0.1007071 0.09406386 -0.041185915 -0.08917296
000390 2f 00 0e 3b cb 01 d2 3d 5b 51 82 bd 87 56 f7 3d
       0.002166759 0.10254248 -0.063631736 0.12077051
0003a0 11 88 e2 3d 28 3e b2 3d 93 ce 05 bd 92 31 a6 bd
       0.11061109 0.087032616 -0.032667708 -0.081149235
0003b0 10 de 5a be 1c b8 0b be a6 be a8 bd d0 f8 24 be
       -0.21373773 -0.13644451 -0.08239488 -0.1611054
0003c0 96 54 2b 3e cc 34 74 3d 5e 4d 8a bd cf 9e 06 3e
       0.16731486 0.059620664 -0.06753038 0.13146518
0003d0 8c 63 e1 bd b9 2d 57 be c6 31 fd 3d 9d a2 d8 bd
       -0.11005315 -0.21013536 0.12363009 -0.10577891
0003e0 ac 39 17 be 87 df 40 3e 0b ea e8 3d 10 df b8 bd
       -0.14768094 0.18835269 0.11372765 -0.09026921
0003f0 00 f0 fb 3b 30 31 b9 bd e4 76 4a be 40 a5 12 3e
       0.0076885223 -0.09042585 -0.19771916 0.1432085

sequential_10/dense_41/BiasAdd/ReadVariableOp:0 f4 [32]
000000 16 9c 97 3c 85 01 68 3c 5d c6 c4 bb d9 d2 46 3d
       0.018507045 0.014160519 -0.006005092 0.048540924
000010 c9 38 8f 3b 2c 5d 53 3d 11 82 53 3c f5 bc bc 3c
       0.004370783 0.051602527 0.012909428 0.02303932
000020 38 d2 e1 ba 3a bf 23 bc 21 9b 1b bb 81 ae 69 3b
       -0.0017228788 -0.009994322 -0.0023743587 0.003565699
000030 f8 2f 5c 3c be 4e 48 bc 57 6f b4 bb ff 29 f1 3b
       0.013439171 -0.012225805 -0.005506437 0.0073597427
000040 a8 ac 9d 3c a7 11 ac 3b f4 ed 63 3c 05 6e fc bb
       0.019247368 0.0052511278 0.013911713 -0.007703545
000050 f6 fe a4 3c 3d 2b 0c bb dd 77 4e 3c 56 63 fb 3b
       0.020141106 -0.0021388077 0.01260182 0.007671754
000060 30 21 17 bc b8 49 7f bb 64 59 7c bc 22 5e 92 3a
       -0.009224221 -0.0038953852 -0.015402172 0.001116697
000070 e2 c4 0e bc ce 39 8a 3c 0b 0b b2 3c 7b 68 ba bb
       -0.008713933 0.016873267 0.021733781 -0.0056887246

sequential_10/dense_40/Tensordot/ReadVariableOp:0 f4 [128, 64]
000000 b1 54 88 bd a4 bc 46 3d 5e 66 d0 bd 02 55 96 3d
       -0.066567786 0.048519745 -0.10175775 0.07340433
000010 e0 83 42 3c 20 f6 ff bb fa 34 c8 3d 1a 9b 5b bd
       0.011872262 -0.007811323 0.097757295 -0.053614713
000020 20 5a df 3b 80 5f b4 bb 34 bd 30 3d 16 65 26 be
       0.0068161637 -0.0055045485 0.04314919 -0.16249499
000030 6d a7 d3 bd 6a 14 d7 3d 9a d6 d2 3d b0 a2 e7 bc
       -0.10334668 0.105019405 0.10294838 -0.028275818
000040 c8 23 88 3c c4 df 2f be 0c 57 16 be 29 70 18 3e
       0.016618624 -0.17175204 -0.14681643 0.14886536
000050 20 5b dd bb d6 a1 99 3d f8 5e 84 3d d4 5b bf bd
       -0.0067552477 0.07501571 0.06463426 -0.09343687
000060 90 af 36 bd ce fc 2c be 92 c0 34 be c8 c3 cf bc
       -0.044601023 -0.16893312 -0.17651585 -0.02536191
000070 f0 d1 19 be 14 0b 32 3d 38 c5 c5 bd 2d 00 ca bd
       -0.15021491 0.043467596 -0.09656757 -0.09863315
000080 19 af 2c 3e 10 18 87 3d 05 c5 bd bd d2 60 c0 3d
       0.1686367 0.065963864 -0.09266094 0.09393467
000090 70 89 95 3d f0 03 20 bc 43 36 00 be 6c 1c 57 3d
       0.07301605 -0.009766564 -0.12520699 0.05251734
0000a0 f0 1d fd bc 52 26 bc 3d ff bd 27 be 22 58 99 3d
       -0.030898064 0.091869965 -0.16381072 0.07487513
0000b0 74 f3 4c 3d 00 d5 5f ba e2 67 c2 3d db 95 b6 bd
       0.050036862 -0.00085385144 0.0949247 -0.089153014
0000c0 17 83 28 3e 92 58 c5 bd 18 71 da 3c ee 37 bc 3d
       0.16456257 -0.09636034 0.026665255 0.09190355
0000d0 a8 4b cf 3c a0 76 87 3b 25 7a 17 3e 40 36 5c 3c
       0.02530463 0.0041340142 0.14792688 0.013440669
0000e0 d7 df 9c bd 94 e4 5a bd 5b b1 8e bd 8a 6d f3 3d
       -0.076598816 -0.053440645 -0.069674216 0.11886127
0000f0 5c bb 83 bd a5 88 1d 3e e7 f9 2f 3e 07 87 bf bd
       -0.0643222 0.15384157 0.17185174 -0.09351926
000100 7d b3 46 3e 42 17 23 be fa b2 fb 3d 2c 42 b7 3d
       0.19404407 -0.15926841 0.122899964 0.08948168
000110 21 36 99 3d aa 7a 0f 3e e4 cc b4 bd f7 d2 be bd
       0.074810274 0.14011636 -0.08828142 -0.09317582
000120 7b 94 b5 bd 23 5c 46 bd 34 ce 27 3e 2d a3 dd bd
       -0.08866211 -0.048427712 0.16387254 -0.10822139
000130 fb 84 a5 bd e6 b2 4c 3e 69 f0 27 bd 0e 11 39 3e
       -0.08082005 0.1999012 -0.041000757 0.18072912
000140 3f f6 12 be d0 e4 4c bd 64 51 36 3c f4 8a a4 3c
       -0.14351748 -0.0500229 0.0111278035 0.02008579
000150 53 23 23 3e 0b d1 99 3d 84 4a 2e 3e 82 26 cc 3d
       0.15931444 0.07510575 0.17020613 0.09968282
000160 d9 6a d3 3d a9 c1 77 bd f3 a7 bc 3d 94 f0 4e 3e
       0.10323114 -0.060487423 0.09211721 0.20208961
000170 76 28 27 be c0 99 aa 3b ff 35 31 3e c1 2d 82 3d
       -0.16324028 0.0052063167 0.17305754 0.06356383
000180 77 5c 6f 3d b7 cb 0c 3d 3e 10 5f be 60 13 ae bc
       0.05843779 0.034373965 -0.2178354 -0.021249473
000190 ee 15 3c bd 95 ff 32 be 52 23 34 bd 2a df f6 3d
       -0.04591935 -0.1748031 -0.043978997 0.12054284
0001a0 1d 12 69 3b 8c f9 14 3d e3 0b e7 3d da 2c 96 3c
       0.0035563775 0.0363708 0.11281564 0.018331934
0001b0 19 f9 ba bc 38 8b 05 be 2b 49 5a bd d0 b0 9d bd
       -0.022823857 -0.13041389 -0.053292435 -0.0769974
0001c0 8a 73 d3 3d b3 05 84 bd 24 3e 76 bd ce b1 86 bb
       0.10324772 -0.064463995 -0.060117856 -0.0041105514
0001d0 8e 2e 1d 3e 28 f6 a5 bd 4a e2 96 3d 82 9b 95 3c
       0.1534979 -0.08103591 0.0736738 0.018262628
0001e0 01 05 22 3e c6 ce 88 bd 5f f9 05 be d3 d6 88 3d
       0.15822221 -0.06680064 -0.13083409 0.066815995
0001f0 3e 90 81 3c ed e1 54 bc c0 b2 83 bd 26 db 9c 3d
       0.01581585 -0.012993318 -0.06430578 0.07658987
000200 37 65 a6 ba b7 92 ad 3d 77 3e c1 bb 02 83 b1 3c
       -0.0012694959 0.08475249 -0.005897339 0.021668915
000210 a5 0d e7 bd b6 ac 0f be 39 81 7b 3e ed 73 b2 3d
       -0.11281899 -0.14030728 0.24561013 0.08713517
000220 57 f0 8e bd 32 de 61 bd ee 05 91 3d 24 bb d3 3d
       -0.06979435 -0.055143543 0.07081209 0.103384286
000230 22 b5 54 3b 7b b5 11 3e 64 43 62 3e 9a 72 aa bc
       0.0032456596 0.14229386 0.2209602 -0.0208066
000240 b0 d4 74 bc aa 86 55 3e ae 66 07 be 9f c9 ef bc
       -0.014943287 0.20852152 -0.13222763 -0.029270945
000250 09 a2 0c 3e 12 f0 c6 3d aa 76 18 3e b4 99 51 3d
       0.13733687 0.097137585 0.14889017 0.051171973
000260 57 c5 46 bb 84 16 63 3e 4d bf 92 3d 34 46 00 be
       -0.0030330026 0.22176558 0.07165394 -0.1252678
000270 17 35 c8 bd f0 4f 92 3d 22 d0 38 3e 82 31 2e bd
       -0.09775751 0.07144153 0.18048146 -0.042527683
000280 a7 02 99 3d 85 5d 87 bd 83 20 0e bd c3 83 01 be
       0.07471209 -0.06609634 -0.034698974 -0.1264792
000290 af 1c 42 3d 4b c1 b0 bd 94 38 b7 3d 40 9f f2 bb
       0.047390636 -0.08630618 0.08946338 -0.007404238
0002a0 2f 16 db bc 3a ca 0e bc 79 c0 0d be b8 2a 77 3d
       -0.026743976 -0.008715207 -0.13842954 0.060343474
0002b0 f0 7e a2 3c 38 97 3c be fb bb cc 3d f2 96 a8 bc
       0.01983592 -0.1841706 0.09996792 -0.020579789
0002c0 b8 ac 16 3e df 15 0d bd 67 fc f4 3c e1 30 f5 3d
       0.14714324 -0.034444686 0.029905511 0.119722135
0002d0 58 67 71 3e 9b e1 cf bd 35 63 19 3e f8 33 87 bd
       0.23574579 -0.10150453 0.1497925 -0.06601709
0002e0 6c a1 19 be b1 e3 74 3d e7 ac 1b 3e 5a 9e 92 bd
       -0.15002984 0.059787456 0.15202676 -0.071591094
0002f0 c4 56 92 3d 09 5c a3 bc a7 83 83 bd 86 ec de bd
       0.071454555 -0.019941347 -0.06421595 -0.10884957
000300 70 78 59 3d 61 01 15 be de 1c ff 3c 73 09 14 3e
       0.053093374 -0.14551307 0.031141695 0.1445673
000310 bd 5d fb bd 75 37 3e be 76 71 2e 3d 08 90 12 be
       -0.122737385 -0.18575843 0.042588674 -0.14312756
000320 e9 dc c8 3d fb cb 2c be a9 7c a1 3d 59 f4 b1 3d
       0.0980776 -0.16874687 0.07885105 0.08689184
000330 ba 75 a0 bc 00 c0 d7 bd e1 5d b4 3d 4b ae de bd
       -0.019587386 -0.10534668 0.088069685 -0.108730875
000340 a5 e2 25 be c6 0f e0 3d 21 6a 02 3e 9f 89 51 3e
       -0.1619974 0.109405085 0.12735797 0.20462655
000350 f2 94 fe 3d 04 f0 98 bd b8 7c 72 3d 46 46 9b 3d
       0.12430753 -0.07467654 0.059200972 0.07581763
000360 48 1f 9a bd 4a 23 52 3d 4b db 8b 3d ed 39 49 3d
       -0.07525498 0.051303186 0.06828936 0.049127508
000370 7c 95 22 be ce e2 f0 bd 5e b4 4a 3d af 1f a5 3d
       -0.15877336 -0.117620096 0.049488418 0.08062684
000380 f8 63 5a bd 42 17 31 bd 4d 7a 27 bd 61 a3 0a be
       -0.053317994 -0.04323507 -0.04088812 -0.13538887
000390 30 92 0f 3e 37 2c 08 3c 2b be 4c 3d fc 67 06 3d
       0.1402061 0.008311323 0.049986046 0.03281401
0003a0 22 65 e7 bd 76 91 e1 bd bf 27 07 3c aa 40 33 3e
       -0.112985864 -0.110140726 0.008249222 0.17505136
0003b0 ab 9b 93 bd be 82 af 3d e7 af ef 3c 5c 9f 89 bd
       -0.07207426 0.08569859 0.029258681 -0.067198485
0003c0 cc 6c 2c 3e c0 9c b3 3b fd 05 ff bd ec 18 01 3e
       0.16838378 0.0054813325 -0.12452314 0.12607163
0003d0 1b 11 73 3e 50 af 17 3c ce 0c c0 3d 3b c7 75 3c
       0.23736994 0.009258106 0.09377442 0.0150011135
0003e0 ba 0c 67 bd 14 f6 b8 3c e3 04 ca 3d 0d f4 2a 3d
       -0.05640862 0.022578277 0.09864213 0.04173665
0003f0 b7 59 94 3d 0c 21 4e be 6c cb ca 3d a3 01 b6 3d
       0.07243674 -0.20129794 0.09902081 0.08887031

sequential_10/dense_40/BiasAdd/ReadVariableOp:0 f4 [64]
000000 85 c7 35 bb 4f f5 d4 3c c0 c0 2c 3c c0 bc 21 3c
       -0.002773733 0.025995879 0.010544002 0.009871662
000010 83 55 24 3d c6 33 5d bc 2e b7 fc ba 28 cc fd bb
       0.040120613 -0.013501113 -0.0019280666 -0.0077452846
000020 c3 c2 e5 3a 51 f4 d6 bb 30 ed 8e bb c3 c6 36 bb
       0.0017529357 -0.0065598865 -0.004361771 -0.0027889467
000030 da 95 57 bc 1f 53 3a 3c d6 6c 61 bb 5b 7c 94 3c
       -0.013158286 0.011372357 -0.0034397147 0.018125704
000040 00 00 00 00 52 ea 0b bc f5 c4 dd 3c 65 69 b8 3b
       0.0 -0.008539753 0.027071455 0.0056277984
000050 00 00 00 00 93 ae 09 bc 54 f7 13 3c 46 76 da bb
       0.0 -0.008403438 0.009031136 -0.0066669313
000060 b3 ee ad 3c 15 e2 71 3c 72 d3 80 ba 96 a3 1e 3c
       0.021231985 0.014763375 -0.0009828641 0.009682557
000070 e7 c4 32 3d 41 d3 c1 bb b7 e5 31 bb 88 62 28 3c
       0.043644812 -0.005915076 -0.0027144977 0.010277398
000080 cb b7 4d 3b 96 8e c0 3c 00 46 a0 3c 00 00 00 00
       0.0031390067 0.02350549 0.019564629 0.0
000090 8e 70 c5 3c 1b 97 c4 3b 82 0e 35 3c 00 00 00 00
       0.024101522 0.0059994585 0.011050822 0.0
0000a0 48 84 c4 3c c0 4b 5b bc 57 1d ec bb a8 c6 0f 3d
       0.023988858 -0.013384759 -0.007205646 0.035101563
0000b0 cd 71 b9 3c 2a 8d 13 bc 33 d1 47 bc b2 6c f0 39
       0.022637272 -0.009005824 -0.012195873 0.00045857352
0000c0 72 b3 1c 3c 47 70 c2 bb 0b cd 13 3b 15 e5 16 bc
       0.0095642675 -0.0059337947 0.0022552635 -0.009209891
0000d0 db 1d 05 3c 00 00 00 00 00 00 00 00 c8 3a 0c 3a
       0.008124794 0.0 0.0 0.0005349335
0000e0 00 00 00 00 4f db f6 bb db b3 8f ba 8b 29 4c 3c
       0.0 -0.007533468 -0.0010963635 0.0124610765
0000f0 bd fb e2 3c f2 07 2d 3d 0d 1c 22 bb 7f 9a be bb
       0.027707929 0.042243905 -0.0024735958 -0.005816757

sequential_10/dense_39/Tensordot/ReadVariableOp:0 f4 [3, 128]
000000 90 f0 91 bc 44 95 19 3d 10 62 76 3e e7 58 79 3e
       -0.017814904 0.037495866 0.24060845 0.2435032
000010 04 91 25 be 18 b9 92 3e 01 07 32 be 2e f6 59 bd
       -0.161686 0.2865684 -0.17385484 -0.05321329
000020 90 5a 9f 3e e1 a6 61 be 18 9e 80 bc e4 5d 62 3d
       0.3112378 -0.22036316 -0.015700385 0.055265322
000030 17 e0 10 be 10 94 86 be 1a 91 f4 bd 02 c6 2b be
       -0.14147983 -0.26284838 -0.119417384 -0.16774753
000040 98 99 2e 3c fc 25 4d 3e f2 7f 1d 3e 22 13 50 3d
       0.010656737 0.20034021 0.15380839 0.050799496
000050 cd 1a ff 3a 65 96 0d 3e c5 43 5f be d2 7e ee 3d
       0.0019462943 0.13826902 -0.21803196 0.11645283
000060 9f 28 49 be b6 e8 71 3d 17 bd f7 bc 0b b5 3c be
       -0.19644402 0.05905982 -0.030241532 -0.18428437
000070 82 7c 2d be 8d 29 1f 3e c3 23 3f be 04 f6 47 be
       -0.16942027 0.15543194 -0.18665986 -0.19527441
000080 a0 e9 95 3e e3 c4 94 3d 24 1b c4 3c be a5 f2 bd
       0.29279804 0.07264116 0.023938723 -0.11848019
000090 fa cd 9a 3d 79 4e e9 3d aa 7a 65 3e c1 d9 a1 3d
       0.07558818 0.113919206 0.22410074 0.079028614
0000a0 13 53 6d 3e f4 82 8e 3e 65 c8 20 bd 8a 48 da bd
       0.23176222 0.27834284 -0.03925361 -0.10658367
0000b0 18 90 b9 bc ec 7e ac 3d c6 82 96 3e e9 4f 92 3c
       -0.022651717 0.08422646 0.29396647 0.01786037
0000c0 9a c5 95 3e fb a3 34 be 7a 2a 24 3e 5c 8f 34 3d
       0.2925232 -0.17640679 0.16031829 0.04408203
0000d0 02 d5 9e bd f7 4e 11 bd 2e f8 2c be 91 cf 99 3e
       -0.07755472 -0.035475697 -0.16891548 0.30041173
0000e0 4d 69 28 be 2d 18 5d be 12 b7 74 3e b4 33 e0 3d
       -0.16446419 -0.21591254 0.23897961 0.109473616
0000f0 60 4d 38 be 01 36 56 3c d7 5f c8 3d a6 79 fc bd
       -0.17998266 0.013074399 0.09783905 -0.1232789
000100 03 4a 05 3e 00 eb 10 be 21 23 68 be cc 90 3e 3e
       0.13016514 -0.14152145 -0.2266965 0.18609923
000110 9c 6f 93 be 04 1f 41 bd c9 97 51 3e 6a 5d 42 bd
       -0.2879609 -0.04714872 0.20468058 -0.047452368
000120 d5 a1 81 be 0a 3f ca 3c 43 ba 69 be ed cf 87 bb
       -0.2531878 0.024688262 -0.2282496 -0.0041446597
000130 b9 8e 97 3e 4b 5a fd 3d 9c e1 95 3e ea 4e 8f 3e
       0.29601076 0.12370738 0.2927369 0.27989894
000140 9b 1e 27 be dd c5 46 be 96 0c c4 bc 82 14 57 3d
       -0.16320269 -0.19411416 -0.023931783 0.052509792
000150 ff e2 ba 3c 68 ae ce bc 08 e9 f1 bd 57 59 46 be
       0.022813318 -0.025229648 -0.11812025 -0.19370018
000160 26 c9 b4 3d 56 d9 70 3e 2f 03 50 be 06 a4 93 3e
       0.088274285 0.23520407 -0.20313714 0.28836077
000170 b4 2d 39 3d 40 82 c9 3d 00 6a a2 bb cf 0d a0 bc
       0.0452096 0.09839296 -0.004956484 -0.019537834
000180 07 51 2e 3e c1 19 3c be 70 63 3a bd dc 75 23 3e
       0.17023097 -0.183692 -0.045504987 0.15962929
000190 89 91 50 3c d0 e2 5f 3c 3e 65 e3 3d 23 87 fc 3b
       0.012730011 0.013664916 0.11103295 0.0077065392
0001a0 89 62 39 be 98 bd 98 3e 51 65 12 3e 2e 09 f0 bd
       -0.18103994 0.2983215 0.14296462 -0.11720501
0001b0 8d f9 d6 bd 89 6f 93 3c cd 01 24 be 44 f6 cb bd
       -0.10496817 0.01799752 -0.16016312 -0.09959081
0001c0 ac 7a 10 be 5e c0 11 3e aa 12 a9 bd fc c8 db bd
       -0.14109296 0.14233539 -0.08255513 -0.10731694
0001d0 f8 a8 4c 3e 31 57 0f be d7 75 87 3b 6b ac 26 be
       0.19986331 -0.13998105 0.0041339207 -0.1627671
0001e0 53 9f 2b be d4 e3 81 bd 68 fe 1b 3e 1d 16 31 be
       -0.16759996 -0.06342283 0.15233767 -0.17293592
0001f0 bf 71 88 3e 84 be 73 3e f9 98 8b 3e fc 3b 9d 3e
       0.2664928 0.23803145 0.27265146 0.30709827
000200 88 46 09 bd b8 42 15 be e1 6f 6f 3e 48 37 cb b9
       -0.03351453 -0.14576232 0.23382522 -0.00038760365
000210 fe 1e 37 be f1 55 47 3d 86 ed 0b 3e ab 4c 03 3d
       -0.17882916 0.048665944 0.13664827 0.03205554
000220 e7 75 04 3e b4 4c 2b 3e c8 c1 2b be ab 90 2e be
       0.12935601 0.16728479 -0.1677314 -0.17047374
000230 c7 4e c6 3d d5 c5 20 3e a0 2b ac bc cf 91 1b be
       0.09682994 0.15700467 -0.021016896 -0.1519234
000240 c6 c7 30 3e b4 dd 5b bc 2b e1 34 bd 22 47 a8 3c
       0.17263708 -0.013419557 -0.04416005 0.020541731
000250 41 19 6e 3e 7b 46 5c be d4 9c 80 bd 2e 76 4f bc
       0.23251821 -0.21511261 -0.062799126 -0.012662454
000260 52 f0 89 3d a8 17 4b 3e 18 f9 33 be 11 ca 9e 3d
       0.067352906 0.19833243 -0.1757549 0.07753385
000270 40 2c f8 bb c6 44 af 3d 78 66 d5 3d a7 4c 20 be
       -0.0075736344 0.08558039 0.10419935 -0.1565424
000280 84 95 e5 3c 0e 93 b5 bd 7b 50 6b 3d 65 ca b9 bd
       0.028025396 -0.08865939 0.0574498 -0.09071807
000290 a4 26 cb bd f8 a4 2b be d3 5b ff bd 2d 3c 15 3e
       -0.099194795 -0.1676215 -0.12468686 0.14573736
0002a0 5c 65 dd 3d 93 24 5f 3e e6 78 e5 3c b0 fd 87 3d
       0.108103484 0.21791296 0.02801175 0.06640184
0002b0 46 7f 0c 3d 7f 7d 73 bd a7 41 bf bd fa 42 46 3e
       0.034301065 -0.059445854 -0.09338694 0.19361487
0002c0 05 17 08 be 9f 29 10 be 58 6a d2 3d 3f 63 2c 3e
       -0.13290031 -0.14078377 0.1027419 0.16834734
0002d0 99 e0 ce bd 1f 25 24 be 7d 8d d9 bd 2c e6 f2 3d
       -0.10101432 -0.16029786 -0.1062269 0.11860308
0002e0 03 0b ef bd b6 78 23 3d 27 3f 9e 3d 85 a1 08 3d
       -0.11672022 0.03991004 0.07726889 0.033357162
0002f0 7e 8d b5 3d 0b 37 0b 3e d8 b8 3d bd 02 7f 54 be
       0.08864878 0.13595216 -0.04631886 -0.20751575
000300 e3 1f ee 3d cf 45 7a 3d 17 97 7b 3e 57 dc 6f 3e
       0.11627176 0.06110173 0.24569355 0.23423897
000310 36 c9 10 3e 5a 0f bc bd a9 b1 41 be 6c cd 16 be
       0.14139256 -0.091826156 -0.18915428 -0.147268
000320 eb f4 95 3d d8 d5 c5 bd 54 3b 55 3e d6 3e 31 3e
       0.07322105 -0.09659928 0.20823413 0.17309126
000330 09 2c 61 3d c2 f4 84 bc 55 e1 31 bd 14 24 a5 bd
       0.054973636 -0.01622999 -0.043427784 -0.08063522
000340 35 99 0f be c5 db d5 3c 3a fd 9d 3d cb 84 05 be
       -0.14023288 0.02610577 0.07714315 -0.13038938
000350 24 6a 46 be 7b a1 48 be ac 19 84 3b 34 5c af 3d
       -0.19376427 -0.1959285 0.0040313806 0.08562508
000360 a7 a8 6c 3e 95 57 d9 3d 66 c6 51 3e b3 58 1c 3e
       0.23111211 0.10612408 0.20485839 0.15268211
000370 b6 b0 b2 3d b2 fa a6 bc 8e b7 c6 bd f2 3a 35 3e
       0.08725111 -0.020383213 -0.09702979 0.17698267
000380 e6 be 30 be de f9 08 be b1 18 3d be 80 b5 93 3c
       -0.17260322 -0.13376567 -0.1846645 0.018030882
000390 2c 08 1d 3e 23 e6 07 3e 38 dc 9c bd 6b e2 fc 3d
       0.15335149 0.13271384 -0.07659191 0.12347873
0003a0 15 e9 9c 3a cb 62 92 3d 59 6e cb bd 40 74 f2 bc
       0.0011971319 0.071477495 -0.099331565 -0.029596448
0003b0 a2 66 09 3e fe 6d 04 be d4 c7 0a 3e 02 38 57 3e
       0.13418058 -0.12932584 0.13552791 0.21017459
0003c0 20 10 05 be 61 91 81 3e 18 37 14 bd 48 35 de bc
       -0.12994432 0.25306228 -0.036185354 -0.027125016
0003d0 3f 94 12 be b5 8c ca bd bd 02 d9 3c 2c 5a 0b be
       -0.14314364 -0.09890119 0.026490564 -0.13608617
0003e0 03 e0 47 be ec 90 17 3e e5 cc fd ba f6 60 33 be
       -0.19519047 0.14801377 -0.0019363431 -0.17517456
0003f0 a8 52 24 3e a4 4e 2c 3e 4d 18 3b 3e ab c8 a5 3d
       0.16047156 0.16826874 0.18270989 0.08094915

sequential_10/dense_39/BiasAdd/ReadVariableOp:0 f4 [128]
000000 00 00 00 00 f2 e8 db 3b 29 22 3f bb 64 79 dc ba
       0.0 0.006711119 -0.0029164648 -0.0016820845
000010 00 00 00 00 80 1f 8c 3b c4 50 d1 3c a2 a8 50 bc
       0.0 0.004276216 0.025551207 -0.012735518
000020 03 f0 8e 3a dc 28 16 3d 00 00 00 00 33 e9 8b bb
       0.0010905269 0.03666006 0.0 -0.004269743
000030 60 35 08 3d 73 52 0e 3d 00 00 00 00 00 00 00 00
       0.033254027 0.0347466 0.0 0.0
000040 2c 0b 59 ba 60 a5 83 ba dd be ab bc 11 dc 6d bc
       -0.0008279558 -0.0010043792 -0.020965034 -0.0145178
000050 6e 56 3a 3b c3 e4 6b bc 36 b2 5f bc 01 3a 0a b9
       0.0028432864 -0.014397803 -0.013653329 -0.00013182314
000060 29 35 05 3d 13 92 81 3c ee 02 6c bc ab 46 2c 3d
       0.0325214 0.015816724 -0.014404995 0.04205958
000070 00 00 00 00 a3 cd a5 3b 48 73 61 3d 00 00 00 00
       0.0 0.005059914 0.05504158 0.0
000080 cc 8d 5c bb 26 58 23 3c 45 2c be 3b 5a 54 55 bc
       -0.0033653853 0.009969747 0.005803617 -0.013020599
000090 78 de 50 ba 3d 8f 43 3d 91 61 13 3b 85 26 08 3d
       -0.0007967721 0.047744025 0.0022488574 0.03323986
0000a0 d4 11 12 bc 1d c8 c2 bb f9 9a 21 bc b5 7f f6 3c
       -0.008915383 -0.0059442655 -0.0098636085 0.030090192
0000b0 ca 18 3d bc 54 a5 cc 3b f3 d2 a5 3b 3e 2b 89 3b
       -0.011541555 0.0062452946 0.0050605475 0.004186063
0000c0 d9 44 ea 3b 11 d9 17 bc b6 07 56 3c d0 ad 2c 3c
       0.0071493206 -0.009268061 0.013063362 0.010539487
0000d0 00 00 00 00 43 a8 c2 bb 00 00 00 00 dc fe ad ba
       0.0 -0.0059404685 0.0 -0.0013274807
0000e0 00 00 00 00 9e 38 fd 3c b4 53 9a 3c 16 e0 8a 3c
       0.0 0.030910786 0.01883874 0.016952556
0000f0 bd 96 79 bc fa 7f 27 3c 31 a8 8f bc 2c 9f 3a bb
       -0.015233693 0.010223383 -0.017536255 -0.0028476221
000100 2e 62 94 3c 98 42 4a bc a0 99 f8 3c d7 7a c0 3c
       0.018113222 -0.012344979 0.030346692 0.023496075
000110 0a 7c 29 3c 00 00 00 00 f7 db 10 3c e2 4b 1e 3d
       0.010344515 0.0 0.008841506 0.038646586
000120 de b9 4f 3d a3 77 25 3d 05 05 70 3c 3c ee 7e 3c
       0.050714366 0.040397298 0.014649634 0.015559729
000130 ca 04 ad bb de ec 05 bd 09 34 45 3c 7d 52 0b 3b
       -0.005280112 -0.032696597 0.012036332 0.0021258884
000140 96 2c 16 3d 1e 8a 17 bc a0 9e 11 bc 78 32 f0 bb
       0.036663614 -0.009249238 -0.008887917 -0.007330235
000150 7f e9 b9 3c 00 00 00 00 07 40 c3 bb 7d 30 ec 3c
       0.022694347 0.0 -0.0059585604 0.028831715
000160 37 4e d4 3c 52 77 2b 3c d4 2b 0c 3d 1c b7 f4 3b
       0.025916202 0.01046546 0.034221485 0.0074681174
000170 a7 a1 cd 3c 49 3a 34 3c 6c a0 63 bb ce be 3e bc
       0.025101496 0.011000224 -0.003473307 -0.011642171
000180 85 86 69 3c 2f 07 c3 bb da 8e 6f 3c 0c 20 2d bb
       0.014253263 -0.005951784 0.014621461 -0.0026416807
000190 8d 28 13 3c 0e 64 9a 3b 61 52 1f 3c 7b d9 b2 bc
       0.008981836 0.0047116345 0.0097242305 -0.021832218
0001a0 43 94 a5 bb 8a 24 cd bb 68 a4 92 3b 00 00 00 00
       -0.0050530746 -0.0062604593 0.004475165 0.0
0001b0 9c 84 ca 3c 0a 61 c3 bb 7a 1e c0 3c 0d a8 de 3c
       0.024721436 -0.0059624957 0.023452032 0.027179742
0001c0 00 00 00 00 ba db a8 3c 00 00 00 00 00 00 00 00
       0.0 0.020612586 0.0 0.0
0001d0 fd f7 59 3c 9c 05 29 3d 88 d5 b8 bb 38 4e c0 bb
       0.013303754 0.041265115 -0.0056406893 -0.0058686994
0001e0 00 00 00 00 31 19 81 bc 83 35 66 3c 00 00 00 00
       0.0 -0.015759083 0.014050844 0.0
0001f0 9c c9 48 bc 67 2e 41 bc 62 c4 aa b9 0f 66 e9 bb
       -0.012255099 -0.011790848 -0.00032571243 -0.007122762

sequential_10/conv2d_21/Conv2D/ReadVariableOp:0 f4 [3, 3, 3, 3]
000000 ec 06 8a 3e 88 ad 6c 3e 21 9d c3 3e aa 04 d0 3e
       0.26958406 0.23113072 0.38205817 0.40628558
000010 f5 ea 9e bd 61 b6 61 be f4 ad 07 3d 42 0d 10 bc
       -0.07759658 -0.22042228 0.03312488 -0.008792223
000020 b3 11 b5 3e d8 b7 58 3e 8f fd 75 be 72 8c f0 be
       0.35365066 0.21163881 -0.24022506 -0.4698215
000030 83 b2 49 be bf fc 65 be 7e d0 5a be ad 14 99 3e
       -0.19697003 -0.22459696 -0.21368596 0.29898587
000040 a0 47 be bd 6f be b4 be 10 9d b6 3e 45 bc 40 bb
       -0.09291005 -0.3530154 0.35666704 -0.0029409092
000050 e8 fe ba bd da 9b 6d be 42 1a 45 3e dd a8 9c bd
       -0.09130651 -0.23203984 0.19248298 -0.076493956
000060 34 b5 8d be 19 6b 82 3e b5 f5 3e be 76 c6 1c be
       -0.2767731 0.25472334 -0.18648417 -0.15310082
000070 ae 8f 88 3e 61 12 7c bc 6f eb ac 3e 75 a5 f5 bd
       0.2667212 -0.015385241 0.33773372 -0.11994449
000080 df 0f a0 be 14 c2 24 3d 53 71 86 bd 71 e5 b1 3e
       -0.3126211 0.04022415 -0.06564584 0.34745362
000090 c3 d5 1d 3e 1e 21 8b be db 07 83 3e 1f 9c 09 be
       0.15413575 -0.27173704 0.2559193 -0.13438462
0000a0 14 de c1 3d 3d 53 d3 3e e2 fb 23 3d 82 fe 3a 3d
       0.09466186 0.41274443 0.040035136 0.045652874
0000b0 9e 2e a4 3e b9 06 b2 3e 2a de c6 bc 0a a5 9d 3a
       0.32066816 0.34770754 -0.024275858 0.0012027335
0000c0 cb e1 e1 3d d2 5b 29 bc f9 ae e4 bc 97 d9 18 3d
       0.11029395 -0.010336833 -0.027915465 0.037316885
0000d0 98 4a 23 3e 82 8f 41 be a5 48 e3 3d 4e 90 26 3d
       0.15946424 -0.189024 0.1109784 0.040664963
0000e0 91 8d 1c 3d c5 cc 3b 3e f1 15 af 3e 2a 49 91 3e
       0.038220946 0.18339832 0.34196427 0.28376132
0000f0 c3 e0 0d 3d 6a ce c7 3e 38 c0 06 3e 1b d4 d8 be
       0.034638178 0.3902467 0.13159263 -0.42349324
000100 f9 47 b4 be 49 32 eb be 89 03 a6 bd 7d a6 95 bd
       -0.3521116 -0.45936802 -0.08106143 -0.07307146
000110 2f fa cf be 4a 41 5e 3e 2d b4 9e be 28 73 14 be
       -0.40620562 0.21704593 -0.30996838 -0.14497054
000120 fe 9d 84 3e 23 d8 77 3c e1 31 89 3d 24 97 0c be
       0.25901788 0.015127215 0.06698967 -0.1372953
000130 7d cb cb bd 70 d0 28 3e a7 24 e6 bd ef 48 21 bd
       -0.09950922 0.16485763 -0.1123746 -0.039376196
000140 5c 89 27 be
       -0.16360992

sequential_10/conv2d_21/BiasAdd/ReadVariableOp:0 f4 [3]
000000 45 55 40 3c e2 fb a3 3c aa e7 c5 3c
       0.01173908 0.020017568 0.024158318

sequential_10/conv2d_20/Conv2D/ReadVariableOp:0 f4 [3, 1, 3, 3]
000000 c4 fb a5 be df fa 84 3e 2a 0b d0 3e bd f5 a3 bb
       -0.32418644 0.2597265 0.40633518 -0.0050036595
000010 2e 47 4e be 68 81 79 3e db 00 9e 3e b6 a0 88 be
       -0.2014434 0.24365771 0.30860028 -0.26685113
000020 dc 44 c6 be 41 ac c1 be c3 ef ca be 08 61 d8 bd
       -0.3872441 -0.37826732 -0.3963605 -0.10565382
000030 68 45 0d 3e b4 03 13 bc 67 ca 91 3d 06 ab 4f 3e
       0.13796008 -0.008973051 0.07118683 0.20280084
000040 ca 0d 33 be 38 08 20 bc 3b 59 e5 3e c8 72 f0 3d
       -0.17485729 -0.0097675845 0.4479464 0.11740643
000050 75 38 9d 3d 99 81 aa be 3e 84 aa be 10 b2 9d 3e
       0.07676784 -0.33302 -0.33304018 0.30799913
000060 7f e8 a1 3e 3b 53 9c 3e 4c 0e 90 be
       0.31622693 0.3053225 -0.28135908

sequential_10/conv2d_20/BiasAdd/ReadVariableOp:0 f4 [3]
000000 dc 0d bb 3c 85 50 2d 3d 87 46 fc ba
       0.022833757 0.042313118 -0.0019247093
