Dependencies/sitting_F2_1.onnx (onnx, 645343 bytes, 12 tensors)

sequential_3/dense_15/MatMul/ReadVariableOp:0 f4 [29600, 5]
-0.011601133 0.009349922 0.0032922968 0.013243628 -0.009177644 -0.029580597 0.021490661 0.015428974
-0.01126328 -0.005322821 -0.03101337 0.0014906228 -0.0035144773 0.002417147 0.0007976149 -0.03534029
0.01251804 -0.0022916996 -0.009246266 -0.0041361167 -0.017267976 0.006111903 0.004570406 -0.003540061
-0.01120046 -0.026333502 0.018714156 0.007232995 -0.008653555 -0.004621428 0.0005782676 0.008458598
-0.0047947303 -0.009699498 -0.0046173227 -0.022414835 -0.020137358 -0.0035071722 0.023207938 0.004542218
-0.028523939 0.0129243005 0.02019089 0.01062536 -0.013762068 0.00067686476 -0.0040795887 -0.008232042
-0.0058256052 0.013938176 -0.013745379 0.01996624 0.019527737 0.004008615 -0.00087508926 -0.033142388
0.010299524 0.0048452117 0.018945336 -0.0019777487 -0.016064981 0.020899938 0.0070339073 0.0059067965
0.001826682 0.0035312744 -0.0025852658 -0.0019278321 0.010420174 -0.0011589928 -0.034068026 0.008739761
0.0081222225 0.0018696648 -0.017449133 0.007334619 -0.012860488 -0.0030479925 -0.00012780074 0.0034346422
-0.010376654 0.008310261 -0.008325325 -0.009822169 0.011599508 -0.034757197 0.015030601 0.013122313
-0.0103748245 -0.006243976 0.0005779043 0.01295985 -0.006765087 0.004315731 0.011486451 0.005981814
0.017401105 0.014011846 0.008353155 0.0070471307 0.0003790731 0.0075920844 0.019359732 -0.001021634
-0.01027206 -0.0064004418 -0.0138407275 -0.00508436 -0.0129408855 -0.013006723 -0.012120026 0.019986352
-0.0043022195 0.0134009775 -0.007120201 -0.020224802 -0.002828585 0.018463569 0.012206332 0.0024243263
-0.02341861 -1.563152e-05 0.010190224 0.002423239 -0.0050736107 0.0008268496 0.0065007797 -0.011548792
0.005227546 -0.013241647 -0.0037901148 0.012611531 0.01569877 0.0136422375 -0.002717904 -0.009287336
-0.01210283 0.0066812956 -0.014034036 -0.0029538535 -0.021866532 -0.044543296 -0.00062221836 0.030266877
0.040318135 -0.0043105464 -0.004486571 -0.011015763 0.010782546 0.005927138 -0.020964883 0.0045206277
-0.0065086945 0.005729526 0.0039562765 -0.029996118 0.0017358914 0.0073399004 -0.011057724 -0.0011485195
-0.015466028 -0.005414988 0.005145046 0.021597099 -0.020362668 -0.0111922035 0.012170018 0.01304492
0.008062328 0.0012091615 0.003123224 -0.002528466 -0.007150088 0.00807383 -0.015462804 -0.027436199
-0.0030872265 -0.0053621633 0.010998629 -0.018645093 -0.011057861 0.009663324 0.0016447973 0.007864617
-0.004360934 -0.027623238 0.008305987 0.00069633935 0.0083781015 0.0014482968 0.0065744016 -0.0057822843
0.020886606 -0.004533203 -0.00025117098 -0.027723443 -0.016241543 -0.006051753 0.010610328 -0.009557292
-0.012308324 -0.006776536 0.011960869 -0.006524665 -0.015368754 -0.0010763649 -0.010867331 0.013697737
0.0016986625 0.013956842 -0.034042303 0.004670888 -0.0051987544 0.0053400593 -0.015273598 -0.025964176
-0.0021056016 -0.005232901 0.0018638801 -0.008080161 -0.0106645 0.005839169 0.02029546 -0.00011414067
-0.01845653 0.013408058 -0.00410311 0.008685769 -0.011814674 -0.0005654339 -0.02920982 0.0074113607
0.0046806936 0.02262682 -0.02269689 0.0007317588 -0.009316208 0.008718769 0.0012087887 -0.01247392
-0.0058309506 -0.0031236869 -0.014385004 -8.2774946e-05 -0.0057402444 -0.0076441066 -0.000938982 0.0067394827
0.011759143 -0.02029178 -0.003658888 0.00032480806 -0.0021839458 -0.009704327 -0.0035857884 0.0027464111
00000000: ae12 3ebc 6a30 193c 93c3 573b cdfb 583c
00000010: d45d 16bc 0253 f2bc 2f0d b03c cfc9 7c3c
00000020: 9f89 38bc 0f6b aebb c00f febc 0061 c33a
00000030: 2553 66bb ff68 1e3b 0817 513a fbc0 10bd
00000040: 7718 4d3c 5730 16bb a77d 17bc 4388 87bb
00000050: 9275 8dbc 5c46 c83b 58c3 953b 5e00 68bb
00000060: 2282 37bc 5bb9 d7bc 6e4e 993c c202 ed3b
00000070: a4c7 0dbc 596f 97bb e296 173a ee95 0a3c
00000080: 1d1d 9dbb a5ea 1ebc e94c 97bb 519f b7bc
00000090: 1af7 a4bc 96d8 65bb 931e be3c e3d6 943b
000000a0: 09ab e9bc 72c0 533c 5e67 a53c fd15 2e3c
000000b0: 4c7a 61bc a06f 313a 12ae 85bb b0df 06bc
000000c0: b8e4 bebb f35c 643c 4c34 61bc 3d90 a33c
000000d0: a2f8 9f3c b35a 833b 3f66 65ba 50c0 07bd
000000e0: 56bf 283c 95c4 9e3b 4033 9b3c 1e9d 01bb
000000f0: b59a 83bc 5936 ab3c b17c e63b cd8d c13b
00000100: 476d ef3a f46c 673b 906d 29bb 50af fcba
00000110: 61b9 2a3c 58e9 97ba ea8a 0bbd 3731 0f3c
00000120: 1213 053c 8a0f f53a 7cf1 8ebc 3e57 f03b
00000130: ccb4 52bc d4c0 47bb 4002 06b9 bc17 613b
00000140: d702 2abc c327 083c f266 08bc 2aed 20bc
00000150: dd0b 3e3c 905d 0ebd e942 763c f8fe 563c
00000160: 2bfb 29bc 449a ccbb 807e 173a 8d55 543c
00000170: aaad ddbb fa6a 8d3b ab31 3c3c 1803 c43b
00000180: c38c 8e3c f191 653c acdb 083c 9eeb e63b
00000190: 55be c639 05c7 f83b 4d98 9e3c 59e8 85ba
000001a0: 244c 28bc ccba d1bb 38c4 62bc b49a a6bb
000001b0: 0206 54bc 261a 55bc 1393 46bc 6bba a33c
000001c0: a2f9 8cbb c68f 5b3c 9350 e9bb 7cae a5bc
000001d0: c85f 39bb e940 973c 11fd 473c 72e1 1e3b
000001e0: 63d8 bfbc 6f20 83b7 e6f4 263c 34cf 1e3b
000001f0: 8840 a6bb f0c0 583a 7e04 d53b 2537 3dbc
00000200: d64b ab3b 7ef3 58bc 9363 78bb 98a0 4e3c
00000210: b59a 803c b183 5f3c dd1e 32bb e929 18bc
00000220: f34a 46bc c5ee da3b 03ef 65bc 7095 41bb
00000230: 7121 b3bc 0873 36bd 5e1c 23ba 3ef2 f73c
00000240: a124 253d 7c3f 8dbb 1604 93bb 757b 34bc
00000250: 47a9 303c 7038 c23b 8cbe abbc c621 943b
00000260: e346 d5bb bfbe bb3b a7a3 813b 6bba f5bc
00000270: da86 e33a 8c83 f03b 752b 35bc eb89 96ba
00000280: 3965 7dbc 3670 b1bb c697 a83b 66ec b03c
00000290: 9ccf a6bc 815f 37bc c164 473c 5cba 553c
000002a0: db17 043c ba7c 9e3a 01af 4c3b 9fb4 25bb
000002b0: 494b eabb 1948 043c b357 7dbc e1c1 e0bc
000002c0: 1153 4abb 16b5 afbb 9833 343c 98bd 98bc
000002d0: 082c 35bc eb52 1e3c 3d96 d73a 98da 003c
000002e0: 2ae6 8ebb 214a e2bc d615 083c 8b8a 363a
000002f0: 4e44 093c c7d4 bd3a 146e d73b 5179 bdbb
00000300: 631a ab3c 438b 94bb 99af 83b9 461c e3bc
00000310: fc0c 85bc c94d c6bb f1d6 2d3c 3096 1cbc
00000320: daa8 49bc b40d debb 85f7 433c dbcc d5bb
00000330: 3acd 7bbc d014 8dba e40c 32bc 796c 603c
00000340: a8a5 de3a 3dab 643c f16f 0bbd 400e 993b
00000350: 505a aabb aafb ae3b 1d3e 7abc d3b2 d4bc
00000360: 22fe 09bb c178 abbb 704d f43a a762 04bc
00000370: 28ba 2ebc 8056 bf3b aa42 a63c ce5e efb8
00000380: 2632 97bc 79ad 5b3c 6273 86bb c14e 0e3c
00000390: 5692 41bc a039 14ba 6f49 efbc 00db f23b
000003a0: 8160 993b e15b b93c d4ee b9bc 80d3 3f3a
000003b0: 02a3 18bc 2bd9 0e3c 3870 9e3a 6a5f 4cbc
000003c0: 8f11 bfbb c5b6 4cbb 14af 6bbc 7697 adb8
000003d0: a918 bcbb 6a7b fabb 0426 76ba e1d6 dc3b
000003e0: 6ca9 403c f23a a6bc f4c9 6fbb 004b aa39
000003f0: 8820 0fbb e6fe 1ebc 8cff 6abb 22fd 333b

sequential_3/dense_15/BiasAdd/ReadVariableOp:0 f4 [5]
-0.016159147 0.0098317135 0.010652155 0.0034282 -0.0059352824
00000000: 3060 84bc 3215 213c 6086 2e3c a7ab 603b
00000010: c27c c2bb

sequential_3/dense_14/Tensordot/ReadVariableOp:0 f4 [64, 32]
-0.050872184 0.07115449 0.15909094 0.11006357 0.27894512 0.23072833 -0.1773878 0.1587535
-0.02421451 -0.1670388 0.029088631 0.23228954 -0.19494967 -0.20219922 0.109038495 -0.11614782
-0.0032471023 -0.1949062 0.16355151 0.06504434 -0.04593359 0.23163378 0.15491292 0.026863722
0.019418407 -0.08759838 -0.18994296 -0.15233216 -0.19674888 0.26019487 0.04873918 0.13285908
0.26643226 0.07420867 -0.0012723441 0.17255723 0.16989686 -0.02889915 0.18903868 -0.061956532
-0.03565877 -0.24622822 0.0071302196 0.022577845 0.25456432 0.18371463 0.33606684 -0.17037503
-0.20675254 0.17939891 -0.16807279 -0.03192123 0.34524485 -0.16317248 0.15642245 0.004419033
-0.1262159 -0.20723689 -0.043742884 -0.0018047844 -0.22194387 -0.014038223 -0.19754641 -0.010880683
-0.18799275 0.004476996 0.11307979 0.23662227 -0.07081479 -0.22029345 0.12614536 0.10176342
-0.060851067 -0.18753582 -0.08692994 -0.084537745 -0.046560105 0.20341712 0.05564733 0.2377488
0.05256653 -0.1768669 0.21801043 0.20786566 -0.12780374 -0.13814193 0.22224587 -0.06361848
-0.20795268 0.008271754 -0.15336072 -0.06022787 0.21648335 -0.18003583 -0.15421447 -0.21622609
0.04883291 -0.12784101 -0.078220546 -0.21957286 0.11153141 0.1746196 0.23670839 -0.22181755
-0.061441638 0.045414865 -0.11068836 0.08763572 0.004913796 -0.23846573 -0.16837096 -0.030898929
0.0724684 -0.03234894 -0.016184092 0.24395539 -0.17742608 -0.047910094 -0.06656486 -0.120344415
-0.041193068 0.007402599 -0.03023529 -0.06685287 0.15445715 0.10136062 0.18069981 -0.17484075
0.028464545 0.051614128 0.05858681 0.28208733 0.04767606 0.3178827 0.07101471 0.2213673
0.057863254 0.09768039 0.21690707 -0.11646253 0.242391 0.11933571 0.29046106 0.03085619
-0.15474609 -0.045512624 0.034234874 0.18874928 -0.025105761 -0.112843156 0.11878291 0.27799827
0.2388551 0.20671356 0.30673155 -0.18628863 -0.21962693 -0.09154491 -0.10560469 0.3123645
0.3004274 0.23487873 -0.020760296 0.3475545 0.043102697 0.30356774 -0.2171634 0.06943419
0.17440139 -0.07340312 0.32401225 0.22463556 0.18110332 -0.09860337 0.009878525 -0.20709254
-0.14648323 0.074683815 0.22600374 -0.13943723 0.18427536 -0.01279068 0.0750988 0.3069804
0.16194563 0.025040805 0.21428707 -0.114855744 0.21466671 0.12600617 0.0561843 0.2784099
0.1332173 0.21144079 0.23589203 0.3590703 -0.07044831 0.040460933 -0.1368384 0.043165
0.19604978 0.11981231 0.18078397 0.14052136 0.026644211 0.019140542 0.10600157 0.2308096
0.12193069 0.34232715 -0.15221244 -0.29182175 0.09158295 -0.22733301 0.14264251 0.20207053
-0.25370544 0.10377067 0.23529771 0.031819858 0.18448997 -0.18280487 -0.070983544 -0.062360074
-0.04296112 0.014276326 -0.116627455 0.04376328 -0.17452478 -0.009853303 -0.18421268 -0.042170703
0.10310906 0.18251336 0.19331366 -0.12906194 0.09656668 0.21066862 -0.0077140927 -0.24937457
-0.17790765 -0.112372875 0.15908992 0.08255625 0.0071209073 0.063364625 0.05291438 0.1355015
-0.044188797 -0.020841718 0.124557555 0.1702506 -0.11489451 0.023932159 0.076764464 -0.094807625
00000000: 5a5f 50bd 72b9 913d bce8 223e 0269 e13d
00000010: e5d1 8e3e 0c44 6c3e 26a5 35be 4790 223e
00000020: 825d c6bc 380c 2bbe 484b ee3c 4fdd 6d3e
00000030: e3a0 47be 500d 4fbe 934f df3d e9de edbd
00000040: 56cd 54bb 7e95 47be 0c7a 273e f835 853d
00000050: dc24 3cbd 6831 6d3e 7ea1 1e3e 4f11 dc3c
00000060: 5a13 9f3c c866 b3bd 6880 42be f6fc 1bbe
00000070: 8a78 49be 4338 853e bca2 473d 360c 083e
00000080: cf69 883e b7fa 973d c9c4 a6ba d8b2 303e
00000090: 71f9 2d3e e9bd ecbc 5b93 413e 22c6 7dbd
000000a0: ee0e 12bd 4023 7cbe 9ea4 e93b 2cf5 b83c
000000b0: 4156 823e b01f 3c3e f410 ac3e cb76 2ebe
000000c0: f0b6 53be 59b4 373e 461b 2cbe d6bf 02bd
000000d0: efc3 b03e b016 27be 352d 203e 89cd 903b
000000e0: be3e 01be e835 54be bd2b 33bd 848e ecba
000000f0: 4145 63be 9300 66bc 9b49 4abe e444 32bc
00000100: 2c81 40be c4b3 923b 6096 e73d 1c4d 723e
00000110: 5807 91bd 9b94 61be 402c 013e 5769 d03d
00000120: f83e 79bd 6409 40be 5308 b2bd 2022 adbd
00000130: cfb5 3ebd 944c 503e 74ee 633d 6c74 733e
00000140: 0050 573d 991c 35be 203e 5f3e bcda 543e
00000150: fcde 02be 1475 0dbe 6c94 633e 684a 82bd
00000160: 8cf1 54be 4086 073c 980a 1dbe 80b1 76bd
00000170: d0ad 5d3e 505b 38be 66ea 1dbe 5f6a 5dbe
00000180: 0405 483d c1e8 02be 1832 a0bd b5d7 60be
00000190: 946a e43d 7bcf 323e af63 723e 2424 63be
000001a0: 3aaa 7bbd f004 3a3d 94b0 e2bd 5b7a b33d
000001b0: e903 a13b 5c30 74be 7069 2cbe c01f fdbc
000001c0: 506a 943d 5280 04bd 8094 84bc 71cf 793e
000001d0: 2faf 35be 603d 44bd 2853 88bd 2277 f6bd
000001e0: 10ba 28bd 8091 f23b 00b0 f7bc 28ea 88bd
000001f0: 042a 1e3e 2896 cf3d 5f09 393e 7409 33be
00000200: 7a2e e93c 5669 533d b9f8 6f3d c06d 903e
00000210: f947 433d 85c1 a23e 2970 913d 1cae 623e
00000220: 0502 6d3d a80c c83d e31c 5e3e e883 eebd
00000230: 5935 783e 4866 f43d 50b7 943e 1fc6 fc3c
00000240: c275 1ebe 726b 3abd de39 0c3d 7e47 413e
00000250: 99aa cdbc 501a e7bd 7444 f33d ca55 8e3e
00000260: 6e96 743e b8ac 533e eb0b 9d3e 72c2 3ebe
00000270: e2e5 60be e67b bbbd 4647 d8bd 3dee 9f3e
00000280: 9fd1 993e 0d84 703e 7f11 aabc aaf2 b13e
00000290: 748c 303d 3b6d 9b3e 1560 5ebe 8333 8e3d
000002a0: 4796 323e 6054 96bd efe4 a53e dd06 663e
000002b0: 2673 393e 90f0 c9bd 89d9 213c 1110 54be
000002c0: b3ff 15be d4f3 983d 866d 673e a2c8 0ebe
000002d0: aeb2 3c3e 0090 51bc 66cd 993d 892c 9d3e
000002e0: 13d5 253e 6022 cd3c 126e 5b3e 7d39 ebbd
000002f0: 97d1 5b3e c307 013e 8221 663d be8b 8e3e
00000300: 1e6a 083e ef83 583e ae8d 713e 10d8 b73e
00000310: 3447 90bd 5dba 253d 5e1f 0cbe c8cd 303d
00000320: 46c1 483e 2860 f53d 6f1f 393e d5e4 0f3e
00000330: f644 da3c a0cc 9c3c 5a17 d93d 5a59 6c3e
00000340: ccb6 f93d 8145 af3e 94dd 1bbe a969 95be
00000350: d78f bb3d fcc9 68be e110 123e 94eb 4e3e
00000360: aee5 81be b885 d43d e2f1 703e 8a55 023d
00000370: f0ea 3c3e 3331 3bbe d25f 91bd 476d 7fbd
00000380: 00f8 2fbd 40e7 693c 60da eebd 2041 333d
00000390: a0b6 32be c06f 21bc 40a2 3cbe 30bb 2cbd
000003a0: d82a d33d c8e4 3a3e 04f4 453e d028 04be
000003b0: c0c4 c53d 84b9 573e 80c6 fcbb 0c5c 7fbe
000003c0: 6c2d 36be c023 e6bd 78e8 223e 4013 a93d
000003d0: 8056 e93b 50c5 813d c0bc 583d e8c0 0a3e
000003e0: 50ff 34bd 40bc aabc 0818 ff3d 2c56 2e3e
000003f0: d04d ebbd 600d c43c b036 9d3d 802a c2bd

sequential_3/dense_14/BiasAdd/ReadVariableOp:0 f4 [32]
0.0014468586 0.009299763 0.0027633447 -0.0037645884 -0.022655688 0.0035920804 -0.017092327 0.01632477
0.0017994398 0.0 0.004371642 0.004006477 -0.0026818078 0.0 0.0063017267 -0.0059716343
-0.0016496028 0.0024194561 -0.006607871 -0.02562894 0.00048736262 0.0 -0.0010751156 -0.0033398021
0.0010025701 0.0 -0.006294508 0.005423062 0.00027563798 -0.0058269976 -0.0026799806 0.0038994148
00000000: 85a4 bd3a 085e 183c 3b19 353b 50b7 76bb
00000010: 6c98 b9bc 1c69 6b3b 3505 8cbc 86bb 853c
00000020: 2edb eb3a 0000 0000 fe3f 8f3b c448 833b
00000030: 45c1 2fbb 0000 0000 b77e ce3b b3ad c3bb
00000040: 7c37 d8ba bd8f 1e3b d786 d8bb c8f3 d1bc
00000050: b484 ff39 0000 0000 e5ea 8cba 95e0 5abb
00000060: ac68 833a 0000 0000 2942 cebb f1b3 b13b
00000070: 8183 9039 66f0 bebb 9da2 2fbb 538d 7f3b

sequential_3/dense_13/Tensordot/ReadVariableOp:0 f4 [128, 64]
-0.021570131 0.086403124 -0.17468633 -0.003437372 0.13970268 -0.06407128 0.033996016 0.16033457
0.074095435 0.14554174 0.10073655 0.029374009 -0.07228895 0.30020887 0.050983515 0.06881595
0.13430624 0.06937597 -0.040792737 0.24555963 0.15441024 0.12725201 0.054085188 0.19082396
-0.16353878 0.078386754 -0.083390675 -0.19949445 0.22366491 -0.06638006 0.04678345 -0.005849222
0.20922184 9.3971204e-05 -0.02576506 -0.12214449 0.17759816 0.23205921 0.15801524 -0.1478813
-0.17866096 0.21621357 -0.13724615 -0.15971991 0.12976547 0.014406565 -0.05241705 0.11832684
0.17909901 0.17429984 0.16450098 -0.01858355 -0.013116465 -0.050097764 -0.15516245 -0.064140566
0.07482871 -0.059942 0.13266034 0.15968578 0.010848843 0.037066333 0.1483969 0.07060576
0.06294522 -0.027773375 0.081885055 0.0032249093 -0.17564413 0.11963272 -0.07928156 -0.1524535
0.106063746 0.12499375 0.033257864 0.0762177 0.043803554 -0.051771104 -0.06363195 0.091930464
-0.15423797 -0.22831671 0.15576921 0.08950135 0.04087727 0.035348263 -0.22881874 -0.14561604
-0.11174667 -0.11768945 0.058770053 0.17431347 0.06663187 0.006307782 0.03750017 -0.1636093
-0.060269117 0.046148505 0.10573751 0.22160749 -0.0001405669 -0.09858871 -0.045934256 -0.037264433
0.2696986 -0.22766404 0.118832745 0.0556735 0.06254227 -0.014747252 -0.05289376 0.13388227
0.019405842 -0.08155551 0.04033037 0.034941647 0.04565102 0.051060926 0.053896606 0.032292664
0.09308589 -0.21301883 -0.12385351 0.05603917 0.15840214 0.1158359 -0.08721736 -0.16317864
-0.10628336 0.18085879 0.10382375 -0.051452916 0.16245662 -0.0754092 0.17199045 0.042242184
-0.042146675 0.12157972 0.026450077 0.039264172 -0.17862232 0.18389735 -0.09579403 0.06521921
-0.09129155 0.035036992 0.12053023 0.03390232 -0.11611133 0.17022021 -0.069669314 -0.07349925
0.09154542 -0.058296002 -0.016705882 0.115263544 -0.06916207 0.16323711 -0.071571454 0.012310051
0.22743446 -0.15908413 0.13389774 0.10073824 0.10975468 0.12460708 -0.09559395 -0.12395813
0.18235324 0.108438686 0.046721634 0.013064611 0.10076449 0.13628043 0.08952575 0.11501216
-0.03640074 -0.060804866 0.17199308 -0.1580038 -0.010422058 -0.047413066 -0.040275134 -0.13450229
0.11143258 0.063208036 0.104818314 -0.056117903 0.051883012 0.025440693 0.06574383 0.009489985
0.05708606 -0.011144535 -0.11474645 -0.06758719 0.10908833 -0.054990243 -0.07649361 0.11309065
-0.16660485 0.038784575 0.0030958925 0.07852571 -0.006647736 -0.059342712 -0.021848083 -0.051384807
-0.10132642 -0.010988513 -0.10226134 -0.07381684 -0.024006087 -0.13857035 -0.024420168 -0.11486161
0.049933057 0.080103114 -0.030110976 0.015484179 0.016081657 -0.16405848 -0.15542272 0.005818395
-0.012424769 0.16975494 -0.020196589 0.07340583 -0.03503639 0.15657844 0.1598248 -0.08440872
-0.14690557 0.025209475 0.045477465 0.003618995 -0.13287582 -0.049560763 -0.11605302 0.018303387
-0.08779002 0.17795338 0.02564531 -0.024108753 -0.039961267 0.1356133 0.042905252 -0.14309789
-0.05593536 0.026593769 -0.06206281 -0.081005886 -0.121071406 0.16446154 -0.11927432 -0.16270816
00000000: d8b3 b0bc 1ff4 b03d f9e0 32be 8845 61bb
00000010: 380e 0f3e ce37 83bd 683f 0b3d bf2e 243e
00000020: 59bf 973d e508 153e f74e ce3d c3a1 f03c
00000030: 3b0c 94bd fab4 993e 17d4 503d 60ef 8c3d
00000040: 9387 093e fd14 8e3d 4916 27bd fc73 7b3e
00000050: b81d 1e3e 5a4e 023e 6e88 5d3d 5b67 433e
00000060: b676 27be 3c89 a03d bbc8 aabd 4648 4cbe
00000070: 6a08 653e 45f2 87bd 01a0 3f3d d5aa bfbb
00000080: 403e 563e 6812 c538 3f11 d3bc e426 fabd
00000090: 4bdc 353e eea0 6d3e bfce 213e 326e 17be
000000a0: e6f2 36be 1767 5d3e 418a 0cbe 9e8d 23be
000000b0: 3de1 043e 8309 6c3c 43b3 56bd 5855 f23d
000000c0: bb65 373e a87b 323e f272 283e 873c 98bc
000000d0: 71e6 56bc 5033 4dbd e8e2 1ebe 215c 83bd
000000e0: cb3f 993d be85 75bd 1dd8 073e ab84 233e
000000f0: 58bf 313c ded2 173d 5bf5 173e c199 903d
00000100: 6ce9 803d fd84 e3bc 5ab3 a73d 0059 533b
00000110: 0edc 33be 0002 f53d 5f5e a2bd c51c 1cbe
00000120: f337 d93d b9fc ff3d 6639 083d 0718 9c3d
00000130: 5b6b 333d f00d 54bd 7851 82bd 0a46 bc3d
00000140: 8ff0 1dbe dbcb 69be f781 1f3e 7c4c b73d
00000150: ed6e 273d 57c9 103d 764f 6abe 5f1c 15be
00000160: 70db e4bd 2b07 f1bd deb8 703d 3b7f 323e
00000170: 4a76 883d 83b1 ce3b c799 193d 3289 27be
00000180: c0dc 76bd 3706 3d3d e88c d83d 13ed 623e
00000190: 2465 13b9 e1e8 c9bd 8f25 3cbd 97a2 18bd
000001a0: ef15 8a3e c320 69be 955e f33d e509 643d
000001b0: 2916 803d 759e 71bc 21a7 58bd 6f18 093e
000001c0: 00f9 9e3c 9306 a7bd 7531 253d f91e 0f3d
000001d0: 90fc 3a3d 4325 513d b0c2 5c3d 5045 043d
000001e0: d1a3 be3d 9c21 5abe e9a6 fdbd 5489 653d
000001f0: 2c34 223e 5f3b ed3d 049f b2bd 4d18 27be
00000200: 17ab d9bd 0c33 393e 8ca1 d43d 4bc0 52bd
00000210: 075b 263e 2370 9abd 441e 303e 2406 2d3d
00000220: fea1 2cbd cafe f83d d5ad d83c 78d3 203d
00000230: c5e8 36be 964f 3c3e a92f c4bd a691 853d
00000240: 10f7 babd f382 0f3d 8ed8 f63d 29dd 0a3d
00000250: c7cb edbd 354e 2e3e c9ae 8ebd c686 96bd
00000260: 2a7c bb3d cac7 6ebd c6da 88bc 4b0f ec3d
00000270: d8a4 8dbd a127 273e 0e94 92bd 19b0 493c
00000280: 94e4 683e f3e6 22be 7d1c 093e da4f ce3d
00000290: 10c7 e03d ff31 ff3d c3c6 c3bd c3dd fdbd
000002a0: cfba 3a3e 1a15 de3d 2f5f 3f3d f30c 563c
000002b0: 9d5d ce3d 198d 0b3e 4759 b73d 7f8b eb3d
000002c0: f118 15bd 860e 79bd f41e 303e c0cb 21be
000002d0: 48c1 2abc 3434 42bd 8af7 24bd f8ba 09be
000002e0: c436 e43d 3773 813d fcaa d63d e3db 65bd
000002f0: 4883 543d 0069 d03c b3a4 863d e27b 1b3c
00000300: 13d3 693d 9197 36bc 3000 ebbd 276b 8abd
00000310: b469 df3d 733d 61bd afa8 9cbd 129c e73d
00000320: 769a 2abe 93dc 1e3d 75e4 4a3b 16d2 a03d
00000330: 40d5 d9bb 5811 73bd c0fa b2bc e078 52bd
00000340: 3a84 cfbd 2a09 34bc 656e d1bd 492d 97bd
00000350: 6aa8 c4bc 63e5 0dbe ce0c c8bc 903c ebbd
00000360: 9b86 4c3d 1a0d a43d 4bab f6bc 5bb1 7d3c
00000370: aebd 833c f2fe 27be 2227 1fbe 3ca8 be3b
00000380: 4291 4bbc 3dd4 2d3e 5173 a5bc cc55 963d
00000390: 5182 0fbd 1956 203e 1da9 233e 7bde acbd
000003a0: 6a6e 16be 1a84 ce3c 9446 3a3d a92c 6d3b
000003b0: 9910 08be 3a00 4bbd 35ad edbd fcf0 953c
000003c0: 41cb b3bd 6939 363e 1d16 d23c b87f c5bc
000003d0: 6dae 23bd 37de 0a3e 6bbd 2f3d 4188 12be
000003e0: 7a1c 65bd 2ddb d93c 9335 7ebd 6ae6 a5bd
000003f0: 49f4 f7bd 9b68 283e 1846 f4bd f89c 26be

sequential_3/dense_13/BiasAdd/ReadVariableOp:0 f4 [64]
-0.012168619 0.0062188795 -0.008242848 -0.0075502302 -0.0017736483 0.003353744 0.007860065 0.0
0.0033425826 0.0047364975 -0.0026670601 -0.011465132 -0.0066197854 0.00271222 -0.006894705 0.0
0.008421982 0.00405333 0.03536865 -0.0022394035 -0.026691742 0.025443023 0.008860266 0.0007495981
-0.009104439 0.0023765683 0.00012568988 0.009883771 -0.0011361453 0.03163397 -0.0010224478 -0.0076937913
0.0066327904 -0.008964256 0.0104197925 0.049034454 0.0026405554 0.0082585635 -0.014647447 0.013965577
0.050655015 -0.006276603 -0.005640982 -0.0061871912 0.012197119 0.0027292685 0.0029823363 -0.0115535585
-0.0003653444 0.00036635663 0.0048602335 -0.009626125 0.01766355 0.033136856 0.002789204 0.01254416
0.04642265 0.003029931 -0.00069240073 -0.014133607 0.01078858 -0.0063472968 0.002068131 -0.0018490856
00000000: e35e 47bc bec7 cb3b 030d 07bc ec67 f7bb
00000010: c379 e8ba 7dca 5b3b 81c7 003c 0000 0000
00000020: 3b0f 5b3b 9f34 9b3b d8c9 2ebb 40d8 3bbc
00000030: c9ea d8bb 80bf 313b faec e1bb 0000 0000
00000040: 5afc 093c ccd1 843b b8de 103d f5c2 12bb
00000050: a4a8 dabc e36d d03c a62a 113c ad80 443a
00000060: c92a 15bc 33c0 1b3b 9fcb 0339 8aef 213c
00000070: b6ea 94ba 9f92 013d a803 86ba 331c fcbb
00000080: e157 d93b d1de 12bc c7b7 2a3c 5ad8 483d
00000090: 2b0d 2d3b ed4e 073c d8fb 6fbc e0cf 643c
000000a0: a27b 4f3d f6ab cdbb fdd7 b8bb ecbd cabb
000000b0: 6dd6 473c 87dd 323b 4d73 433b 234b 3dbc
000000c0: b28b bfb9 8e13 c039 9842 9f3b e5b6 1dbc
000000d0: 26b3 903c 83ba 073d 14cb 363b 0586 4d3c
000000e0: ad25 3e3d cf91 463b 3a82 35ba a590 67bc
000000f0: 96c2 303c fcfc cfbb 7b89 073b 045d f2ba

sequential_3/dense_12/Tensordot/ReadVariableOp:0 f4 [3, 128]
-0.32817686 0.21031491 0.032182857 -0.07920895 -0.0076220385 -0.049934026 0.06901098 -0.18550806
-0.03395836 -0.18348789 -0.16795781 -0.27130696 -0.16803724 0.060023453 0.022548657 -0.018841311
-0.07781711 -0.08087774 -0.03241088 -0.16696882 0.08740532 -0.06711987 0.08525501 -0.12012553
-0.0963578 0.23719712 -0.2921379 -0.15134804 -0.1749837 0.18972227 -0.061622966 -0.17158848
0.25582197 -0.011488586 -0.11364915 0.09431123 0.16539939 0.11396177 -0.083676346 -0.21245834
-0.24007261 0.058366183 -0.09246766 -0.21184953 -0.15631182 0.06196199 0.3083247 -0.07840198
-0.13042809 0.00084208074 0.17626232 0.058599506 -0.07674691 0.17899852 -0.07041884 -0.13415815
0.05730901 -0.31007698 -0.14565082 -0.31017536 -0.11181241 0.06997499 -0.018190803 -0.17077762
0.042546306 -0.27673647 0.27941644 -0.15586261 0.33937782 0.14777024 0.015421153 0.19353597
-0.12627324 -0.17038542 0.022393791 -0.23404971 0.22668076 -0.12911437 -0.103256986 -0.16569555
0.2537095 0.17321153 0.042969473 0.2614383 -0.07939836 0.2951866 -0.26970395 0.09934159
0.15833992 0.0110107 -0.08359969 0.24057782 -0.17391816 -0.06581399 0.024426784 0.2374397
0.11018861 -0.1699807 -0.23338187 -0.07822183 0.006632928 -0.07120393 -0.26105377 0.0370857
-0.11306967 -0.22989298 -0.089944206 -0.044745497 -0.244409 -0.14982247 -0.19124976 0.06545694
-0.28224522 -0.07190675 -0.12937672 -0.070982516 -0.19979022 -0.24145421 0.28655127 0.008965357
-0.052284356 -0.11564892 -0.09894163 -0.2077588 -0.047887687 -0.15709037 0.127198 0.070785284
-0.1360503 0.018214134 0.14138481 0.13987142 0.077686474 0.1459271 -0.18956634 -0.04487344
0.18722221 -0.09276832 -0.16402581 -0.21782333 0.11136921 -0.18670505 -0.1333039 -0.15891802
-0.121337876 -5.2156927e-05 0.14439252 -0.27569908 -0.18656282 -0.022819296 -0.061994635 -0.22730246
-0.24233557 -0.12961948 0.060094323 0.16257507 -0.14679462 -0.0051882584 -0.04971496 0.07716895
0.19904624 0.26660284 0.09122242 -0.31924132 0.23261885 -0.2512812 0.21464534 -0.16461068
-0.19210537 0.032070104 0.14142309 0.0017005722 -0.1712043 0.120820455 0.08311839 -0.092615254
-0.112555854 0.0761901 -0.16307616 0.20020698 -0.2302981 0.17893259 -0.10608443 0.06331239
0.09842505 -0.26810083 0.028095076 -0.23895298 0.013354167 -0.12947963 0.09174354 -0.05507514
0.04331104 -0.1366244 -0.049670435 -0.10342432 0.15618752 0.30483258 0.11129847 -0.080401555
-0.24120818 0.015245903 -0.13667014 -0.2034411 -0.0732572 -0.17024061 0.20620142 -0.10697664
0.27480236 0.06731348 0.09613531 0.069529906 -0.27486643 0.042020727 -0.14760062 0.06673736
0.1159395 -0.057088118 -0.29073465 -0.039041903 -0.20239696 -0.20264007 0.0042595575 0.25837493
-0.13597748 -0.24682674 -0.14655918 0.0075286184 -0.2215594 -0.15903756 -0.04984098 0.016403072
0.105161846 -0.11727186 0.057575256 0.099412955 0.0793749 -0.012843543 0.15741462 -0.12845281
-0.109232195 0.27753827 0.13855407 0.042049594 -0.047893345 -0.21739057 0.2235501 -0.18651564
-0.24413712 0.08176683 0.26587874 -0.2865853 -0.123647526 0.043702062 0.24658434 -0.08036327
00000000: cc06 a8be cb5c 573e 2cd2 033d 4d38 a2bd
00000010: 4bc2 f9bb 9f87 4cbd a155 8d3d d3f5 3dbe
00000020: ec17 0bbd 40e4 3bbe 22fd 2bbe bfe8 8abe
00000030: f411 2cbe 27db 753d f6b7 b83c 1859 9abc
00000040: 945e 9fbd 3ba3 a5bd 45c1 04bd e0f9 2abe
00000050: 8f01 b33d 2476 89bd 2e9a ae3d 6004 f6bd
00000060: 3d57 c5bd cde3 723e 1993 95be fbfa 1abe
00000070: ed2e 33be 8e46 423e 5d68 7cbd e4b4 2fbe
00000080: 19fb 823e 9f3a 3cbc e3c0 e8bd 3f26 c13d
00000090: 755e 293e ca64 e93d 815e abbd ae8e 59be
000000a0: 98d5 75be 6111 6f3d af5f bdbd 15ef 58be
000000b0: 3510 20be dbcb 7d3d bcdc 9d3e 3891 a0bd
000000c0: f18e 05be 15bf 5c3a 1c7e 343e 0906 703d
000000d0: 7c2d 9dbd 634b 373e c137 90bd c160 09be
000000e0: dabc 6a3d 69c2 9ebe 7d25 15be 4ecf 9ebe
000000f0: e8fd e4bd 0c4f 8f3d e104 95bc 54e0 2ebe
00000100: 0945 2e3d 67b0 8dbe ac0f 8f3e 739a 1fbe
00000110: eec2 ad3e 1551 173e 01a9 7c3c 4b2e 463e
00000120: c64d 01be 8479 2ebe 2f73 b73c baaa 6fbe
00000130: 001f 683e 8f36 04be 6678 d3bd 18ac 29be
00000140: 36e6 813e 5d5e 313e c200 303d 3edb 853e
00000150: 9b9b a2bd b322 973e a316 8abe 9b73 cb3d
00000160: dc23 223e 3966 343c 5036 abbd 085a 763e
00000170: 9a17 32be 7cc9 86bd ae1a c83c 6523 733e
00000180: 91aa e13d 6c0f 2ebe a8fb 6ebe c432 a0bd
00000190: 0859 d93b 5ed3 91bd d7a8 85be 2de7 173d
000001a0: 1291 e7bd 1169 6bbe ab34 b8bd 0e47 37bd
000001b0: 5a46 7abe 106b 19be fad6 43be 4a0e 863d
000001c0: 7282 90be d943 93bd 557b 04be 485f 91bd
000001d0: cf95 4cbe c63f 77be d9b6 923e 6fe3 123c
000001e0: 1f28 56bd 57d9 ecbd e9a1 cabd b9be 54be
000001f0: e125 44bd 4cdc 20be 3140 023e e0f7 903d
00000200: c550 0bbe cf35 953c 2ec7 103e 743a 0f3e
00000210: 161a 9f3d ea6d 153e ae1d 42be 36cd 37bd
00000220: 2eb7 3f3e 51fd bdbd 62f6 27be 140d 5fbe
00000230: 8a15 e43d 9c2f 3fbe d180 08be 68bb 22be
00000240: fe7f f8bd 13c3 5ab8 a2db 133e 6e28 8dbe
00000250: 530a 3fbe 88ef babc 16ee 7dbd fac1 68be
00000260: d126 78be f8ba 04be 7725 763d 147a 263e
00000270: 5451 16be 4402 aabb eaa1 4bbd c10a 9e3d
00000280: c7d2 4b3e 2b80 883e d2d2 ba3d 9973 a3be
00000290: a333 6e3e eea7 80be fdcb 5b3e b48f 28be
000002a0: 45b7 44be f15b 033d 37d1 103e bce5 de3a
000002b0: 2e50 2fbe b770 f73d f939 aa3d 11ad bdbd
000002c0: af83 e6bd 8e09 9c3d 70fd 26be 0f03 4d3e
000002d0: 44d3 6bbe 1b3a 373e cb42 d9bd eda9 813d
000002e0: 1393 c93d 8344 89be a527 e63c 17b0 74be
000002f0: 70cb 5a3c 4f96 04be 09e4 bb3d 7896 61bd
00000300: eb66 313d 44e7 0bbe 3a73 4bbd 21d0 d3bd
00000310: 9fef 1f3e 0413 9c3e 74f0 e33d 92a9 a4bd
00000320: 47ff 76be f4c9 793c 42f3 0bbe dd52 50be
00000330: df07 96bd 8e53 2ebe 7726 533e 9216 dbbd
00000340: e5b2 8c3e a6db 893d 97e2 c43d b265 8e3d
00000350: 4bbb 8cbe ed1d 2c3d 9e24 17be 99ad 883d
00000360: b071 ed3d 3bd5 69bd 2cdb 94be 67ea 1fbd
00000370: 2641 4fbe e180 4fbe c293 8b3b b849 843e
00000380: ae3d 0bbe 26c0 7cbe 9c13 16be a1b2 f63b
00000390: 78e0 62be beda 22be 0e26 4cbd bc5f 863c
000003a0: 185f d73d 3b2c f0bd 08d4 6b3d 0599 cb3d
000003b0: 4f8f a23d b96d 52bc 4c31 213e 2289 03be
000003c0: 21b5 dfbd 7f19 8e3e 1ee1 0d3e 323c 2c3d
000003d0: d02b 44bd a29b 5ebe 51ea 643e f5fd 3ebe
000003e0: 15ff 79be 5e75 a73d 4221 883e 4fbb 92be
000003f0: ea3a fdbd ef00 333d 9b80 7c3e 8095 a4bd

sequential_3/dense_12/BiasAdd/ReadVariableOp:0 f4 [128]
0.0035821102 0.011963873 0.028668758 -0.005468265 -0.0048136255 -0.015620267 -0.014733181 0.002334705
-0.019064697 0.011968545 -0.0033475375 0.0060119033 -0.010273735 -0.0069227363 -0.0046849945 0.0
-0.008137914 0.010664864 -0.01677984 -0.0011454923 -0.013635474 0.0 0.022963487 0.012497846
0.0028586115 0.0010060106 0.00065717415 -0.007362731 0.0 0.023750275 0.0076784217 -0.0151315415
0.009789594 0.016409123 -0.0019641342 0.007116571 0.045763396 -0.00067262084 0.01971399 0.0
0.012442287 0.021049032 0.026007421 -0.0031971382 0.0 0.0149448 0.021341458 0.0
0.0013511879 -0.0034001784 -0.005530635 0.014986957 0.020471182 -0.0363325 -0.008042236 -0.004261401
-0.0004535629 0.01496124 -0.012000307 0.016633319 -0.0053331675 -0.0068295505 -0.010663871 0.0
0.005884391 0.0063789412 0.028082296 0.0 0.015980143 0.029863805 0.010353765 -0.0038659582
0.0033357744 0.0014427619 -0.010005229 -0.019312356 0.04356623 -0.005012956 -0.007281726 0.010076887
0.031650454 0.036714166 -0.013459076 0.015767835 0.003661942 0.028798057 0.0037457547 -0.019069325
-0.004566163 0.006989136 0.0023901646 0.03414195 0.0039295563 0.0 -0.019268077 0.03411269
-0.014498621 0.009294125 0.008397772 -0.0053701554 0.003521576 0.0 -0.0011273674 -0.0056911907
-0.000872607 0.010175449 0.0041770935 -0.014917028 -0.007995681 0.0002586352 -0.0068849446 -0.003629101
0.00023734805 0.04898913 -0.0057245297 -0.00070443115 0.018845284 0.008083399 0.009530652 -0.0053025717
-0.0072531938 -0.014222296 0.019893223 0.011566315 -0.0059292763 -0.005431118 0.0036743768 -0.01588095
00000000: d6c1 6a3b 1f04 443c beda ea3c 222f b3bb
00000010: 9ebb 9dbb 26ec 7fbc 7163 71bc da01 193b
00000020: 912d 9cbc b717 443c 5c62 5bbb 80ff c43b
00000030: 2b53 28bc 1fd8 e2bb 9584 99bb 0000 0000
00000040: e354 05bc afbb 2e3c e075 89bc 5824 96ba
00000050: 5367 5fbc 0000 0000 ec1d bc3c c4c3 4c3c
00000060: 8b57 3b3b 1ddc 833a 3646 2c3a 1043 f1bb
00000070: 0000 0000 f08f c23c 459b fb3b 49ea 77bc
00000080: 8964 203c 6d6c 863c b4b8 00bb 2032 e93b
00000090: 6672 3b3d d252 30ba 3c7f a13c 0000 0000
000000a0: bcda 4b3c 056f ac3c 840d d53c 1487 51bb
000000b0: 0000 0000 09db 743c 48d4 ae3c 0000 0000
000000c0: 581a b13a 87d5 5ebb 543a b5bb db8b 753c
000000d0: 2eb3 a73c 63d1 14bd 95c3 03bc 39a3 8bbb
000000e0: 2fcc edb9 fd1f 753c f09c 44bc 9942 883c
000000f0: dac1 aebb 6cca dfbb 84b7 2ebc 0000 0000
00000100: d9d1 c03b 7006 d13b d80c e63c 0000 0000
00000110: cae8 823c f0a4 f43c d7a2 293c 045c 7dbb
00000120: 029d 5a3b 0e1b bd3a f9ec 23bc f234 9ebc
00000130: 8172 323d b943 a4bb 8c9b eebb 8719 253c
00000140: e8a3 013d 9861 163d 7583 5cbc 8c2b 813c
00000150: 31fd 6f3b e7e9 eb3c 567b 753b 4637 9cbc
00000160: c09f 95bb 1f05 e53b 4fa4 1c3b 6ed8 0b3d
00000170: 82c3 803b 0000 0000 16d8 9dbc bfb9 0b3d
00000180: a08b 6dbc 6346 183c cf96 093c 21f8 afbb
00000190: 3eca 663b 0000 0000 2cc4 93ba 2b7d babb
000001a0: aabf 64ba edb6 263c 00e0 883b 8d66 74bc
000001b0: 5100 03bc 6e99 8739 1a9b e1bb 36d6 6dbb
000001c0: a2e0 7839 d3a8 483d d694 bbbb 93a9 38ba
000001d0: 6d61 9a3c 3c70 043c 7426 1c3c 32c1 adbb
000001e0: 33ac edbb a204 69bc 1df7 a23c a480 3d3c
000001f0: 604a c2bb 85f7 b1bb d0cd 703b c418 82bc

sequential_3/conv2d_7/Conv2D/ReadVariableOp:0 f4 [3, 3, 3, 3]
0.082149155 -0.29057437 0.2672628 -0.14705642 -0.20982668 -0.14776897 -0.098966815 0.03393838
-0.080505095 -0.35503578 -0.09201775 -0.3812806 -0.39271912 -0.3313987 -0.39081466 -0.23353685
-0.22242899 -0.25198853 0.15496604 -0.02827217 0.1105678 0.24838908 -0.31392786 0.2985278
0.17702855 0.0193739 -0.19582713 0.02597602 -0.3261252 -0.29468763 0.040974844 -0.19273019
-0.37038916 -0.40181774 -0.021803765 -0.43090856 0.11558679 -0.16930039 -0.26583374 -0.33152595
-0.19308211 0.007824145 -0.020322038 0.17908642 0.13137624 0.28594947 0.1988276 -0.11561979
-0.11103355 -0.033675008 -0.2508278 -0.1283701 0.35500127 -0.13065156 0.009442592 -0.12624824
-0.111632064 0.18913852 0.44471565 -0.04361893 0.16846651 0.1909624 -0.00056179176 0.3557472
0.4447174 -0.044459112 -0.07233277 0.45303145 0.13425054 0.22599383 0.21412367 0.17691986
0.13487907 -0.18803634 0.12040664 -0.18519445 0.1055784 0.4243562 0.045124765 0.4610785
0.30728894
00000000: d13d a83d 2ac6 94be abd6 883e f595 16be
00000010: cedc 56be c050 17be 1daf cabd f902 0b3d
00000020: dbdf a4bd 40c7 b5be cd73 bcbd 3637 c3be
00000030: 7b12 c9be 17ad a9be dc18 c8be 4924 6fbe
00000040: 6dc4 63be a404 81be 6baf 1e3e 0a9b e7bc
00000050: 5f71 e23d b559 7e3e 27bb a0be a3d8 983e
00000060: f946 353e 03b6 9e3c e886 48be aacb d43c
00000070: e2f9 a6be 4ce1 96be 3dd5 273d 105b 45be
00000080: a6a3 bdbe 0ebb cdbe cf9d b2bc 0ca0 dcbe
00000090: c4b8 ec3d 155d 2dbe 5c1b 88be c5bd a9be
000000a0: 51b7 45be d830 003c 677a a6bc 6e62 373e
000000b0: 7e87 063e f867 923e 7699 4b3e 12ca ecbd
000000c0: 8f65 e3bd ceee 09bd 806c 80be 7473 03be
000000d0: bac2 b53e 86c9 05be 1ab5 1a3c 3847 01be
000000e0: 5a9f e4bd 87ad 413e c5b1 e33e c3a9 32bd
000000f0: 7c82 2c3e a68b 433e 3545 13ba 7f24 b63e
00000100: 00b2 e33e c21a 36bd 3423 94bd bdf3 e73e
00000110: f978 093e ed6a 673e 3c43 5b3e 7b2a 353e
00000120: bd1d 0a3e 998c 40be c297 f63d 9da3 3dbe
00000130: 7d39 d83d 3745 d93e bfd4 383d 7b12 ec3e
00000140: fa54 9d3e

sequential_3/conv2d_7/BiasAdd/ReadVariableOp:0 f4 [3]
0.06644577 0.060545795 -0.00021619545
00000000: b814 883d defe 773d 86b2 62b9

sequential_3/conv2d_6/Conv2D/ReadVariableOp:0 f4 [3, 1, 3, 3]
0.19742987 0.38898733 0.13295077 -0.039520964 -0.36341888 -0.3458664 -0.35693425 0.2139702
0.087146856 -0.026065623 0.3162557 0.4021741 -0.15099739 0.23385729 -0.16993408 -0.17593516
-0.44232324 0.0024782056 0.22719218 0.11322069 0.18308035 -0.1152194 -0.1694463 -0.086568154
0.26688424 -0.29137453 -0.41337726
00000000: 0e2b 4a3e 5929 c73e 3f24 083e bce0 21bd
00000010: 0a12 babe 6715 b1be 16c0 b6be 011b 5b3e
00000020: 0d7a b23d 9387 d5bc 44ec a13e c3e9 cd3e
00000030: 0f9f 1abe 4978 6f3e 3303 2ebe 5928 34be
00000040: 3178 e2be 6469 223b 11a5 683e 40e0 e73d
00000050: 6a79 3b3e 26f8 ebbd 5583 2dbe a54a b1bd
00000060: 0da5 883e 0b2f 95be 2fa6 d3be

sequential_3/conv2d_6/BiasAdd/ReadVariableOp:0 f4 [3]
0.011674221 0.01440451 0.0690544
00000000: 3b45 3f3c e500 6c3c 656c 8d3d
